best_model_accuracy.pth (torch, 22992 bytes, 8 tensors)

fc1.weight f4 [32, 19]
-0.12816438 -0.19942617 -0.063043974 -0.19733147 -0.08823959 -0.070115335 0.03254672 0.22378011
-0.13253011 -0.091816194 0.10916197 0.0908459 -0.12591812 -0.21442786 -0.04798062 0.19613276
-0.15452337 0.009552225 -0.036482032 -0.15507674 -0.13540249 0.07032841 -0.11798777 0.044487208
0.029115116 0.0012056034 0.07545893 -0.008956602 -0.08588683 0.21105565 -0.03419433 -0.17548932
0.09554355 -0.024442272 -0.07032734 -0.18090135 0.1460638 0.044152025 -0.19140366 0.17284289
-0.067399226 -0.054208636 -0.0677087 0.22914003 0.2164878 -0.033556346 0.16594724 -0.050837882
-0.1790334 -0.034939248 -0.15409376 -0.1023487 0.17559828 -0.08030276 0.22018105 0.13012588
-0.09844495 -7.611354e-05 -0.18036737 -1.8835052 0.12367358 2.3503804 -0.1526962 4.1290646
4.3019376 0.43741792 0.8414618 -3.6864843 -3.7339835 -4.471831 -4.736866 -1.9532522
-4.7758765 -5.9945116 -1.8671384 -3.035559 -0.030670406 -0.38681617 -1.2478948 -0.43837744
0.8081095 -0.3608811 4.073634 1.0304586 0.162206 0.23045354 -3.033113 -3.4690185
-2.4328215 -2.876072 -2.595012 -2.5198655 -3.6074216 -1.8967215 -2.6814084 -0.21313417
-0.11644537 0.07544649 -0.07732142 -0.1426659 -0.017551001 0.17432319 0.113401346 -0.013499404
-0.17912121 0.14070202 -0.21729258 0.04719624 -0.15603706 -0.043464947 -0.017111374 -0.016839858
0.04623858 0.06685805 -0.061693892 -0.039341643 0.037525926 -0.18541124 -0.14844775 -0.008926819
-0.21334715 0.12642579 0.2110041 -0.20605369 -0.1865478 -0.17005518 0.088307165 -0.0955599
0.18530571 -0.032741554 -0.1393389 -0.057089936 -0.0077861142 -0.00138092 -0.25406265 -0.18727031
-0.07369065 -0.10203621 -0.13608742 0.6362143 0.050973944 -0.3501194 -0.039323363 -0.36130708
-0.27544606 -0.49272734 -0.36873826 -0.5067174 -0.40437582 -0.43126264 -0.43771395 -0.3875209
-0.012973777 0.5104635 0.7427675 0.28817448 0.48048782 0.6471916 0.45675275 -0.2704678
0.461056 0.5596985 0.5551093 0.31255165 0.34304583 0.04097095 0.4522518 0.56374955
0.23534924 0.34856185 0.3841624 -0.16146655 -0.17686692 -0.060493592 -0.10370442 0.016352644
-0.06829434 -0.1762622 -0.07584151 0.21308021 0.10047558 0.20269166 -0.21658598 0.15158807
-0.1772683 -0.20433922 0.11410704 -0.07672989 0.12002017 -0.018756932 -0.13473926 0.010735512
0.07022812 0.18946391 0.009941667 -0.11942272 -0.13753931 0.06804437 0.14166401 0.050754495
-0.047012568 -0.15352935 -0.14851677 -0.055879686 -0.21089533 0.101452984 0.08460408 -0.12752265
0.22470708 -0.021096898 0.5982225 0.7739515 0.3843611 0.27913362 0.5393226 6.355876
-1.6352508 -0.04798791 -0.32877582 -1.0730244 -0.24219851 -0.757719 -0.4877654 -1.1355349
0.11393323 0.9052537 -1.8856564 -0.6612075 -0.03248024 0.20591947 -0.16399711 -0.12756899
0.16402249 -0.047091495 0.0690569 0.20429905 -0.08869511 -0.079744905 0.10535044 0.15078415
0.12748496 -0.20230952 -0.10549635 -0.08055355 -0.001144835 0.004397418 -0.14981209 -0.024944525
-0.06732361 1.2703819 0.41493773 -0.34771505 0.55192846 -5.534811 -1.0912762 -0.6755269
00000000: 863d 03be 6036 4cbe 331d 81bd 4311 4abe
00000010: f5b6 b4bd a198 8fbd b64f 053d 9d26 653e
00000020: f9b5 07be 210a bcbd 5090 df3d 6a0d ba3d
00000030: aef0 00be fa92 5bbe 5487 44bd 07d7 483e
00000040: 603b 1ebe ef80 1c3c 2f6e 15bd 70cc 1ebe
00000050: f3a6 0abe 5708 903d 92a3 f1bd 3838 363d
00000060: d382 ee3c 5605 9e3a 368a 9a3d b6be 12bc
00000070: 6fe5 afbd f91e 583e 5b0f 0cbd 79b3 33be
00000080: 56ac c33d 293b c8bc c807 90bd 343e 39be
00000090: c091 153e c1d8 343d 52ff 43be bafd 303e
000000a0: 9b08 8abd e009 5ebd dcaa 8abd afa3 6a3e
000000b0: faae 5d3e 6172 09bd 13ee 293e 623b 50bd
000000c0: 8854 37be 751c 0fbd c1ca 1dbe 329c d1bd
000000d0: 09d0 333e c675 a4bd 2477 613e b83f 053e
000000e0: 829d c9bd 259f 9fb8 39b2 38be b316 f1bf
000000f0: 9348 fd3d a26c 1640 655c 1cbe 4c21 8440
00000100: 79a9 8940 3ef5 df3e 0a6a 573f 5cef 6bc0
00000110: 96f9 6ec0 3d19 8fc0 6894 97c0 2b04 fabf
00000120: fbd3 98c0 0ad3 bfc0 64fe eebf 9946 42c0
00000130: 8140 fbbc c50c c6be 04bb 9fbf 0273 e0be
00000140: 44e0 4e3f 68c5 b8be 365b 8240 11e6 833f
00000150: 5419 263e 03fc 6b3e 861e 42c0 6604 5ec0
00000160: 59b3 1bc0 9011 38c0 ad14 26c0 7a45 21c0
00000170: ffdf 66c0 c5c7 f2bf 329c 2bc0 d83f 5abe
00000180: e97a eebd b083 9a3d b15a 9ebd 0217 12be
00000190: 1ec7 8fbc c781 323e f73e e83d 9b2c 5dbc
000001a0: 8d6b 37be 3114 103e f281 5ebe d850 413d
000001b0: 2ec8 1fbe 4d08 32bd 272d 8cbc bef3 89bc
000001c0: aa64 3d3d e0ec 883d bcb2 7cbd b424 21bd
000001d0: c9b4 193d 72dc 3dbe b002 18be cb41 12bc
000001e0: ad77 5abe c375 013e 7511 583e bdff 52be
000001f0: 6306 3fbe f222 2ebe 63da b43d e9b4 c3bd
00000200: c8c0 3d3e 021c 06bd dbae 0ebe 23d7 69bd
00000210: a922 ffbb fcff b4ba 8014 82be cac3 3fbe
00000220: 20eb 96bd 5cf8 d0bd 805a 0bbe f1de 223f
00000230: 0eca 503d da42 b3be 8911 21bd 3efd b8be
00000240: 4407 8dbe c246 fcbe 43cb bcbe 3bb8 01bf
00000250: 590a cfbe 75ce dcbe 0b1c e0be 2469 c6be
00000260: f78f 54bc bcad 023f 0326 3e3f 9b8b 933e
00000270: 8002 f63e 59ae 253f 7fdb e93e c17a 8abe
00000280: 880f ec3e 6748 0f3f a51b 0e3f c506 a03e
00000290: b4a3 af3e 28d1 273d 8c8d e73e e451 103f
000002a0: 64ff 703e b376 b23e efb0 c43e 7d57 25be
000002b0: 9a1c 35be 21c8 77bd fc62 d4bd fbf5 853c
000002c0: e7dd 8bbd 147e 34be cb52 9bbd b331 5a3e
000002d0: 24c6 cd3d 678e 4f3e b7c8 5dbe e739 1b3e
000002e0: d285 35be 4d3e 51be f4b0 e93d 9024 9dbd
000002f0: 23cd f53d 23a8 99bc 17f9 09be 00e4 2f3c
00000300: c3d3 8f3d d402 423e 60e2 223c e693 f4bd
00000310: 1bd7 0cbe d95a 8b3d 5f10 113e f2e3 4f3d
00000320: 4090 40bd cc36 1dbe c814 18be 19e2 64bd
00000330: f2f4 57be 95c6 cf3d e744 ad3d 4c95 02be
00000340: 9d19 663e 67d3 acbc 1c25 193f af21 463f
00000350: faca c43e 9aea 8e3e 0c11 0a3f 5663 cb40
00000360: e64f d1bf f98e 44bd 4e55 a8be dd58 89bf
00000370: e302 78be dff9 41bf 63bc f9be 3559 91bf
00000380: d355 e93d b5be 673f 305d f1bf e544 29bf
00000390: 000a 05bd 8edc 523e dcee 27be 72a1 02be
000003a0: 83f5 273e 03e3 40bd b46d 8d3d c533 513e
000003b0: c8a5 b5bd 4c51 a3bd f9c1 d73d 2967 1a3e
000003c0: 6b8b 023e 3a2a 4fbe 780e d8bd 42f9 a4bd
000003d0: 4a0e 96ba 3718 903b 5768 19be 7658 ccbc
000003e0: f6e0 89bd e09b a23f b872 d43e b507 b2be
000003f0: 2f4b 0d3f 2c1d b1c0 f0ae 8bbf 55ef 2cbf

fc1.bias f4 [32]
0.08478911 -0.18857604 0.2104102 -6.4098315 -4.22355 -0.09681867 0.1204275 -0.5847007
0.720321 0.03313764 -0.17965765 -1.0765789 0.13510346 3.9629173 2.987148 0.13050711
-0.20579864 0.002010278 0.22193258 -0.036476016 -0.37250018 -3.7906733 0.016975615 0.03640275
0.0623639 5.6316314 -4.961468 -0.12956394 -0.11285315 0.07877149 0.02039084 1.9480056
00000000: eaa5 ad3d 141a 41be c575 573e 571d cdc0
00000010: 5227 87c0 de48 c6bd b1a2 f63d f2ae 15bf
00000020: f566 383f 56bb 073d 2df8 37be 56cd 89bf
00000030: 9058 0a3e 70a0 7d40 6f2d 3f40 a8a3 053e
00000040: e1bc 52be debe 033b 4b42 633e e067 15bd
00000050: 58b8 bebe 649a 72c0 7210 8b3c 0d1b 153d
00000060: 4a71 7f3d 5336 b440 59c4 9ec0 69ac 04be
00000070: 8d1f e7bd f252 a13d b10a a73c 3f58 f93f

fc2.weight f4 [64, 32]
-0.075900465 -0.02810651 -0.16436718 -0.2647537 -0.197256 0.09566498 -0.11531934 0.07733165
0.08129583 0.07129597 -0.11360318 0.06092874 -0.06373309 0.06278869 -0.15401386 0.0029293534
0.14296903 0.06955336 -0.09023088 0.018300183 -0.051961794 0.033498686 0.13789822 -0.11402143
0.07353247 0.021733433 -0.14258823 0.07770263 -0.17651218 0.1727634 0.17400415 0.15671922
0.10284699 -0.011318936 -0.08586293 -0.1723421 0.04938642 -0.10564042 0.07322941 -0.100838296
-0.038651876 0.048782658 0.062555216 0.03890015 -0.15263936 -0.0073621105 0.1495817 -0.0396491
0.08838662 -0.0725287 -0.055228975 -0.13819735 -0.065951176 -0.16702317 -0.02830597 -0.027494729
0.014065647 -0.052674264 0.05824342 0.023846285 -0.06961334 0.13998818 -0.13658637 0.054556705
0.07925226 -0.15043148 -0.14385112 -0.12790252 -0.1090651 0.16736637 0.15644315 -0.07146451
-0.16085593 -0.16300936 0.111694016 0.13267757 0.0066329446 -0.07203596 0.091969855 0.11339072
0.14236367 0.09212077 0.096553855 0.086599804 0.17675689 -0.10779795 -0.019043189 -0.115829654
0.123238795 -0.18642664 0.075274065 -0.17058592 -0.041113198 -0.046767913 0.06984885 -0.08494459
-0.120184414 -0.14784025 0.15445013 -0.048030153 -0.12464967 -0.11071275 0.14212634 0.109146
0.016756019 0.106239244 0.17216918 -0.14352228 -0.16926 0.027941572 0.14171547 0.13799186
-0.16246717 -0.16403864 0.07682671 0.015082481 0.073674306 0.009180073 0.13805868 -0.042025425
0.038286198 0.02351759 -0.23053032 0.01623292 0.06438287 0.11686769 -0.06473269 -0.112083025
-0.117157996 0.057750326 0.11672177 -0.09754834 -0.20395733 -0.15339676 -0.06294535 -0.019075638
0.10132259 -0.055684056 0.15375897 -0.010035788 0.051430915 0.05272414 0.14421767 0.097791836
0.045601394 0.0640615 -0.012195612 0.03176258 -0.17093697 0.034787614 -0.02568138 -0.033964206
-0.11605385 0.010370411 -0.18985823 -0.11297598 -0.057071384 0.023349354 0.059133545 -0.05532961
0.053017173 -0.035303086 -0.03670198 -0.024433859 -0.29521567 0.13469523 -0.11738024 -0.17352605
0.07286912 0.06237196 -0.12272237 -0.16538136 -0.011794585 0.053474225 -0.112517014 0.08077753
0.17408146 -0.099393435 -0.16837747 0.17546566 0.013228565 -0.3982201 -0.105960354 0.16178808
0.109448075 0.03081312 -0.5310076 0.14610435 0.13383198 -0.09908597 -0.07977104 0.13068287
0.0852765 0.17474827 -0.027448198 -0.23967397 0.038880214 -0.0717375 -0.106199354 -0.059417214
0.054594055 -0.17590663 -0.098579034 -0.1469104 0.110076316 -0.16629796 -0.15612634 -0.028778331
0.14436334 0.13114807 0.038514864 0.16377102 -0.012624751 0.031798106 0.02158102 0.020748155
0.17188972 -0.097216666 -0.14575815 -0.112270966 -0.035446025 0.009307604 0.09146376 -0.13778812
0.092075 0.078710906 0.07055214 -0.17422658 -0.11239616 0.067306496 -0.010974239 0.12333982
-0.08229466 0.137942 -0.02503232 -0.12675147 0.048852473 -0.07569655 -0.13918713 -0.075028256
-0.012501008 0.08218003 -0.023090173 0.13593562 -0.049804907 -0.17318062 -0.13280132 -0.07935299
-0.17265625 -0.35595238 0.081050515 -0.033041928 -0.06872667 -0.076892264 0.14767069 -0.14536272
00000000: b471 9bbd a03f e6bc df4f 28be cc8d 87be
00000010: 7afd 49be 00ec c33d 8c2c ecbd 0e60 9e3d
00000020: 6e7e a63d 9f03 923d c9a8 e8bd 6a90 793d
00000030: 7f86 82bd 5b97 803d cfb5 1dbe 65fa 3f3b
00000040: 7966 123e fe71 8e3d f8ca b8bd 44ea 953c
00000050: e4d5 54bd eb35 093d 3135 0d3e 1184 e9bd
00000060: 3198 963d 500a b23c a602 12be 8e22 9f3d
00000070: 9cbf 34be e4e8 303e 252e 323e 017b 203e
00000080: 71a1 d23d 0f73 39bc e7d8 afbd 737a 30be
00000090: 6a49 4a3d 015a d8bd 4df9 953d 4f84 cebd
000000a0: 6e51 1ebd 53d0 473d f31c 803d c455 1f3d
000000b0: 7e4d 1cbe dc3d f1bb f22b 193e 1867 22bd
000000c0: 0b04 b53d ed89 94bd c737 62bd 9b83 0dbe
000000d0: 6911 87bd 1f08 2bbe ece1 e7bc a03c e1bc
000000e0: 9973 663c f8c0 57bd a790 6e3d 4959 c33c
000000f0: 7091 8ebd 1059 0f3e 4cdd 0bbe da76 5f3d
00000100: 024f a23d b60a 1abe b54d 13be e1f8 02be
00000110: 865d dfbd 1762 2b3e a232 203e fc5b 92bd
00000120: 6bb7 24be edeb 26be d5bf e43d a1dc 073e
00000130: 2c59 d93b 9787 93bd b15a bc3d 6539 e83d
00000140: c8c7 113e d0a9 bc3d 07be c53d 3d5b b13d
00000150: c2ff 343e 2cc5 dcbd 7600 9cbc 1938 edbd
00000160: 9f64 fc3d a0e6 3ebe 4a29 9a3d 13ae 2ebe
00000170: 5066 28bd b68f 3fbd ea0c 8f3d 6ef7 adbd
00000180: 3f23 f6bd 6f63 17be 2d28 1e3e 44bb 44bd
00000190: 5448 ffbd 5ebd e2bd 9189 113e f087 df3d
000001a0: eb43 893c f693 d93d 1e4d 303e 81f7 12be
000001b0: 7e52 2dbe b9e5 e43c dc1d 113e bd4d 0d3e
000001c0: cb5d 26be bff9 27be 5257 9d3d 831c 773c
000001d0: 8ee2 963d 0468 163c 415f 0d3e da22 2cbd
000001e0: fdd1 1c3d f6a7 c03c 2410 6cbe e7fa 843c
000001f0: 2bdb 833d 5458 ef3d 9392 84bd c98b e5bd
00000200: 88f0 efbd 9b8b 6c3d d30b ef3d 6dc7 c7bd
00000210: 31da 50be 0a14 1dbe 7ee9 80bd 8344 9cbc
00000220: 3882 cf3d f714 64bd fe72 1d3e 256d 24bc
00000230: 39a9 523d 45f5 573d ccad 133e 1647 c83d
00000240: 87c8 3a3d ad32 833d 1bd0 47bc 7b19 023d
00000250: 1a0a 2fbe 757d 0e3d c261 d2bc 0d1e 0bbd
00000260: a4ad edbd a8e8 293c 326a 42be f35f e7bd
00000270: afc3 69bd 2547 bf3c 0436 723d 4da1 62bd
00000280: 8928 593d f899 10bd d154 16bd 8429 c8bc
00000290: 8226 97be 8ced 093e 0d65 f0bd d0b0 31be
000002a0: 683c 953d be79 7f3d de55 fbbd bb59 29be
000002b0: 133e 41bc ca07 5b3d 526f e6bd b16e a53d
000002c0: 6942 323e c98e cbbd 256b 2cbe 45ad 333e
000002d0: a0bc 583c 81e3 cbbe be01 d9bd c6ab 253e
000002e0: 5026 e03d cc6b fc3c 1df0 07bf 619c 153e
000002f0: 400b 093e 96ed cabd 005f a3bd bbd1 053e
00000300: 72a5 ae3d 36f1 323e 0bdb e0bc 186d 75be
00000310: dc40 1f3d 1ceb 92bd 0c7f d9bd 775f 73bd
00000320: 049e 5f3d de20 34be cee3 c9bd ae6f 16be
00000330: b16f e13d 034a 2abe 95df 1fbe 89c0 ebbc
00000340: fcd3 133e ae4b 063e c3c1 1d3d 97b3 273e
00000350: 0bd8 4ebc bb3e 023d aeca b03c 09f8 a93c
00000360: dc03 303e 8819 c7bd a041 15be 52ee e5bd
00000370: da2f 11bd ec7e 183c 5a51 bb3d 5418 0dbe
00000380: d191 bc3d 2f33 a13d a47d 903d 7468 32be
00000390: f52f e6bd fdd7 893d 4bcd 33bc 9699 fc3d
000003a0: 1a8a a8bd ab40 0d3e 9410 cdbc 23cb 01be
000003b0: 8819 483d cb06 9bbd 1287 0ebe 6aa8 99bd
000003c0: 07d1 4cbc 014e a83d 9a27 bdbc b532 0b3e
000003d0: 3b00 4cbd 4356 31be 12fd 07be d283 a2bd
000003e0: cdcc 30be 643f b6be d0fd a53d f956 07bd
000003f0: 92c0 8cbd b179 9dbd fc36 173e f7d9 14be

fc2.bias f4 [64]
0.1913717 0.21759093 0.29222393 0.70002335 0.78256 1.3371181 -0.07147379 -3.3652155
-0.12901941 -0.16693501 0.14635414 -0.09257913 -0.16009644 0.30388796 -0.20538549 0.4890413
0.3770559 -0.1651516 1.4713662 -0.10435935 -6.135209 -1.3409331 -0.045251343 0.20945458
-0.20172203 0.3210799 -0.094230495 0.25265342 -0.23104273 0.46079603 -0.07799484 3.2045457
-1.025351 0.19398545 -0.0493392 -0.014194542 0.2994263 0.3172778 -0.25706118 -0.047311265
4.978512 -0.26105657 -0.77523553 -0.196542 -0.16987844 -0.19794986 2.0398176 -0.21835586
-0.29406154 -0.1056805 -0.4242635 -0.1799095 -0.114098564 -0.14351714 0.0081637455 -0.07145265
-0.027823709 0.37476915 -0.046053983 -0.09931361 0.05176254 0.0968336 0.3115411 -0.049094856
00000000: f1f6 433e 28d0 5e3e 609e 953e bb34 333f
00000010: da55 483f b026 ab3f da60 92bd b15f 57c0
00000020: aa1d 04be 03f1 2abe dcdd 153e 209a bdbd
00000030: 52f0 23be 3497 9b3e 9350 52be 9f63 fa3e
00000040: 790d c13e 801d 29be ba55 bc3f 5bba d5bd
00000050: a253 c4c0 b2a3 abbf 7959 39bd 437b 563e
00000060: 3890 4ebe 9664 a43e ebfb c0bd ca5b 813e
00000070: 7796 6cbe 75ed eb3e c2bb 9fbd 4717 4d40
00000080: b43e 83bf 1fa4 463e e717 4abd 3990 68bc
00000090: 674e 993e 3c72 a23e 869d 83be 75c9 41bd
000000a0: f84f 9f40 35a9 85be d675 46bf 4e42 49be
000000b0: 9df4 2dbe 5eb3 4abe 5f8c 0240 ae98 5fbe
000000c0: 3c8f 96be 056f d8bd 1139 d9be 323a 38be
000000d0: 82ac e9bd 28f6 12be 3bc1 053c c455 92bd
000000e0: 8cee e3bc bee1 bf3e 1aa3 3cbd ef64 cbbd
000000f0: f504 543d b250 c63d 5182 9f3e b017 49bd

fc3.weight f4 [32, 64]
-0.038599543 -0.012383996 0.09725492 0.090270385 0.037085615 -0.03471606 0.053805266 0.041367114
-0.0012521883 -0.033108268 0.070290945 0.08601547 0.088847935 0.088765986 0.08478635 0.05297833
-0.02797667 -0.107513495 -0.057037268 -0.12539296 -0.0024996493 0.08387659 -0.0022411128 -0.18810698
0.0547077 -0.12234794 -0.07805799 -0.12027762 0.09624644 -0.078594595 0.020308884 -0.22088054
0.0736395 -0.07361649 0.022982113 0.028790744 -0.021083698 -0.00038807813 -0.013365904 0.09375042
-0.027836263 0.060762055 -0.014482713 0.029592238 0.0052180537 -0.11140314 -0.02271314 0.15673731
-0.12493116 0.059148446 0.03229626 -0.064096056 -0.15519035 0.06302448 0.06404045 -0.001990484
-0.047507614 0.008811101 -0.06898328 -0.08930299 0.044973597 -0.0050925454 0.05246614 -0.015699888
-0.075144574 -0.027461275 0.07851812 -0.15259418 -0.030085256 0.011410427 0.10805209 0.0014377654
-0.039630085 0.0054181367 0.05510012 0.039530143 0.098912016 -0.023088679 -0.0073972815 0.010528058
-0.28363508 -0.031240836 -0.03248709 -0.0063617676 -0.17090933 -0.03295246 0.049427688 -0.11129398
0.03094393 0.03725195 -0.101631135 -0.08455378 -0.09533218 -0.10893823 0.05336693 -0.021137577
0.003401228 -0.10913023 0.05107239 -0.06255829 0.11356598 -0.19530703 0.06654254 0.05721997
-0.043947477 -0.11345186 -0.16757917 -0.11095151 0.037757207 -0.16074371 -0.10746565 -0.09723936
-0.15613958 -0.21811442 -0.5097596 0.021652386 -0.082328394 -0.026416482 -0.07291368 0.15811285
0.35504377 -0.12603785 -0.049902588 -0.06376 0.103260055 0.05077213 -0.013609901 0.2022958
0.058289774 -0.02780199 0.0037676543 -0.42661965 -0.04788416 -0.17108491 -0.11661176 -0.024404712
0.06718162 -0.031502284 0.031483598 -0.08111089 -0.051962227 -0.18298177 0.0245926 -0.15097217
-0.23422328 -0.14708705 -0.4184017 0.0081409775 -0.37088808 -0.21427827 -0.038555745 -0.50539666
0.10219053 -0.22267345 -0.015488923 0.07226084 0.09584977 -0.37687966 -0.10946894 0.06998852
0.08580711 -0.034806773 -0.089812025 0.09833834 0.017188564 -0.19006304 -0.14554389 -0.005311567
-3.7692223 0.036405973 0.063376024 -0.16474956 -0.15207352 -0.24957573 -1.0274663 -0.089302115
-0.4781699 -0.26876962 -0.045794472 0.07991135 -0.14313342 0.022631647 -0.015238314 -0.008218759
-0.111690424 -0.08589465 -0.07985212 -0.103159636 0.026605874 -0.03191699 0.030163614 0.09116007
0.30906883 0.27943608 0.2869244 0.4201999 0.3316 0.05989761 0.081049964 0.12805997
-0.062216025 0.031070387 0.24293043 0.22550134 -0.0067671034 0.26876977 0.13466813 0.45005885
0.16263361 0.041233864 0.1640307 0.14028852 -0.071966745 0.013280223 0.09351423 0.17182916
-0.029535225 0.2921412 0.016123388 0.14761153 0.13543655 0.37563682 -0.0104160495 -0.07662644
0.30718607 0.21226908 0.053426735 0.035748336 0.30837962 0.16435184 0.10148224 -0.018346338
-0.040456086 -0.055671725 0.00771951 -0.023527682 -0.03519685 0.028961712 0.15138331 0.24763301
-0.02814512 0.24417934 0.20111513 -0.03853706 0.19005689 0.15672295 0.1289142 0.088460304
0.06965145 0.33746275 0.11508782 0.10382454 0.21784346 0.09687704 0.36294216 0.10560958
00000000: 8e1a 1ebd 3ee6 4abc 962d c73d aedf b83d
00000010: 16e7 173d 6d32 0ebd e962 5c3d 9070 293d
00000020: 7820 a4ba 899c 07bd b3f4 8f3d e128 b03d
00000030: e8f5 b53d f1ca b53d 77a4 ad3d ceff 583d
00000040: 542f e5bc 0930 dcbd e99f 69bd 0367 00be
00000050: 28d1 23bb 7dc7 ab3d a2df 12bb 1e9f 40be
00000060: 2e15 603d 8f91 fabd dedc 9fbd 1d54 f6bd
00000070: db1c c53d 34f6 a0bd d15e a63c 822e 62be
00000080: 4ed0 963d 3ec4 96bd fc44 bc3c 91da eb3c
00000090: b8b7 acbc f776 cbb9 aafc 5abc 3800 c03d
000000a0: e008 e4bc a2e1 783d e748 6dbc 6c6b f23c
000000b0: 35fc aa3b 5427 e4bd e810 babc bf7f 203e
000000c0: e8db ffbd a445 723d 1549 043d cb44 83bd
000000d0: 38ea 1ebe fb12 813d a427 833d c872 02bb
000000e0: 5897 42bd 705c 103c 1b47 8dbd 7ce4 b6bd
000000f0: 3c36 383d 5edf a6bb bce6 563d 0d9d 80bc
00000100: 66e5 99bd 78f6 e0bc 1cce a03d a641 1cbe
00000110: 5b75 f6bc cdf2 3a3c 6a4a dd3d 6773 bc3a
00000120: 2853 22bd a08a b13b aab0 613d 5cea 213d
00000130: 6292 ca3d 7824 bdbc e564 f2bb e07d 2c3c
00000140: 9e38 91be c8ec ffbc 2f11 05bd 6076 d0bb
00000150: db02 2fbe 29f9 06bd b074 4a3d 19ee e3bd
00000160: 207e fd3c 8095 183d fc23 d0bd 882a adbd
00000170: 853d c3bd 021b dfbd 4897 5a3d b628 adbc
00000180: 23e7 5e3b ac7f dfbd 4831 513d 901e 80bd
00000190: 4895 e83d 91fe 47be 7547 883d 7d5f 6a3d
000001a0: 4502 34bd 7359 e8bd e099 2bbe 8c3a e3bd
000001b0: 4da7 1a3d 009a 24be f316 dcbd 6e25 c7bd
000001c0: 0ee3 1fbe 6359 5fbe 9b7f 02bf 5860 b13c
000001d0: ca9b a8bd 6167 d8bc c453 95bd 56e8 213e
000001e0: 4cc8 b53e 1110 01be a866 4cbd 9a94 82bd
000001f0: 027a d33d 70f6 4f3d 10fc 5ebc a126 4f3e
00000200: 42c1 6e3d 00c1 e3bc c0ea 763b e46d dabe
00000210: 2e22 44bd e230 2fbe 25d2 eebd 64ec c7bc
00000220: 8496 893d 8a08 01bd f2f4 003d 771d a6bd
00000230: 58d6 54bd 935f 3bbe 6c76 c93c 7398 1abe
00000240: 3ad8 6fbe fd9d 16be bf38 d6be bc61 053c
00000250: 0be5 bdbe c36b 5bbe a1ec 1dbd ad61 01bf
00000260: 4549 d13d 8204 64be 40c5 7dbc 7efd 933d
00000270: e24c c43d 5ff6 c0be 4031 e0bd 2456 8f3d
00000280: a3bb af3d 8c91 0ebd 5eef b7bd 9d65 c93d
00000290: 08cf 8c3c e39f 42be 7509 15be a70c aebb
000002a0: f03a 71c0 6e1e 153d 4acb 813d 1cb4 28be
000002b0: 29b9 1bbe c890 7fbe 0484 83bf 07e4 b6bd
000002c0: afd2 f4be 2c9c 89be fc92 3bbd 90a8 a33d
000002d0: 9191 12be 0166 b93c 1faa 79bc f9a7 06bc
000002e0: f3bd e4bd 89e9 afbd 8289 a3bd 5c45 d3bd
000002f0: 90f4 d93c 64bb 02bd af19 f73c 21b2 ba3d
00000300: 453e 9e3e 3f12 8f3e c1e7 923e 7124 d73e
00000310: 7ac7 a93e 3257 753d 86fd a53d 2722 033e
00000320: 3bd6 7ebd 5387 fe3c c1c2 783e d3e9 663e
00000330: 94be ddbb 319c 893e 71e6 093e 1d6e e63e
00000340: 6d89 263e d7e4 283d aaf7 273e cba7 0f3e
00000350: 4d63 93bd 4b95 593c 6384 bf3d fcf3 2f3e
00000360: dbf3 f1bc 8893 953e 3215 843c 7a27 173e
00000370: e1af 0a3e 7853 c03e 14a8 2abc 53ee 9cbd
00000380: 7e47 9d3e 115d 593e fed5 5a3d d96c 123d
00000390: efe3 9d3e d94b 283e ecd5 cf3d 0f4b 96bc
000003a0: 48b5 25bd 0908 64bd f1f3 fc3b 20bd c0bc
000003b0: 922a 10bd 1d41 ed3c 3a04 1b3e 8293 7d3e
000003c0: 9890 e6bc 260a 7a3e 20f1 4d3e 09d9 1dbd
000003d0: 469e 423e fb7b 203e 1602 043e ad2a b53d
000003e0: 6ba5 8e3d ebc7 ac3e 2ab3 eb3d f6a1 d43d
000003f0: 5b12 5f3e 7867 c63d 8ed3 b93e d649 d83d

fc3.bias f4 [32]
-1.9189297 -0.3048966 1.6662165 4.003504 0.73069346 0.14576529 -4.349576 -3.6764266
1.1770988 -0.1460666 2.3122072 -0.5362598 -0.33661363 -0.3010986 -0.7048119 -0.27251443
-0.04586394 -3.2468948 -0.4111547 1.4753968 2.5028675 1.3378128 -0.26821002 4.318865
-0.008780136 -0.26550546 -1.2290186 -0.62030697 3.3968189 -2.9194553 -0.0074456036 -0.009835841
00000000: 7d9f f5bf 681b 9cbe 9546 d53f b41c 8040
00000010: ba0e 3b3f 7f43 153e ba2f 8bc0 934a 6bc0
00000020: 2cab 963f 7c92 15be 34fb 1340 5248 09bf
00000030: 9f58 acbe 9829 9abe 8d6e 34bf 0387 8bbe
00000040: d4db 3bbd 20cd 4fc0 de82 d2be cdd9 bc3f
00000050: fb2e 2040 733d ab3f d352 89be 2434 8a40
00000060: 8fda 0fbc 55f0 87be 7b50 9dbf 70cc 1ebf
00000070: 7b65 5940 5bd8 3ac0 40fa f3bb 8226 21bc

fc4.weight f4 [3, 32]
0.14528431 -0.17727521 -0.28089178 0.27829787 -0.2566166 -0.37269217 0.89816356 0.69094247
-0.12809996 -0.258582 -0.9539035 -0.30087462 -0.12655427 -0.14695339 -0.24717042 -0.34571528
-0.20605591 0.19184881 -0.16984628 -0.25301266 -0.73009604 1.4471842 -0.17771287 0.53976196
-0.41593143 -0.024700517 -0.2609784 -0.36272228 0.21840082 -0.6142392 -0.1865055 -0.27170232
0.10431264 0.06274392 0.043679934 0.23211713 -0.10244752 -0.8220343 -1.35566 -0.50256294
0.0728505 -0.18032695 0.8800924 -0.32180226 -0.1928496 -0.25323728 -0.7181428 -0.31471962
-0.16902958 -0.22372277 -0.7567547 0.22597691 0.8680466 -1.3144484 -0.4087626 -0.88385457
-0.52737457 -0.03918927 -0.21329983 -0.4090127 -0.60615563 0.09434992 -0.67896175 -0.23140451
0.08221077 -0.23247519 0.09568821 -0.76958776 -0.08983628 -0.3490953 0.66308707 -0.07007541
-0.3494634 -0.5157102 0.24286446 -0.13832115 -0.29718348 -0.24230495 -0.6008599 -0.31703275
-0.15200156 0.11038487 -0.32406437 -0.1341502 -0.37203956 -1.2902669 -0.33109254 0.5443907
-0.6239734 -0.029245505 0.0150644425 -0.3645386 0.8962889 0.12436894 -0.072515585 -0.657719
00000000: 69c5 143e a287 35be 0cd1 8fbe 0f7d 8e3e
00000010: 4063 83be 82d1 bebe 0cee 653f 9be1 303f
00000020: a32c 03be dc64 84be 0533 74bf 3d0c 9abe
00000030: 7197 01be f37a 16be 3e1a 7dbe 9801 b1be
00000040: 5200 53be 0474 443e 2fec 2dbe e08a 81be
00000050: 93e7 3abf 553d b93f 5dfa 35be d72d 0a3f
00000060: f7f4 d4be bd58 cabc f69e 85be bcb6 b9be
00000070: 77a4 5f3e c83e 1dbf 4cfb 3ebe 911c 8bbe
00000080: dea1 d53d e27f 803d bbe9 323d 1db0 6d3e
00000090: 01d0 d1bd d770 52bf 4486 adbf f7a7 00bf
000000a0: a532 953d a1a7 38be bc4d 613f 44c3 a4be
000000b0: 5e7a 45be 51a8 81be 35d8 37bf ee22 a1be
000000c0: 1716 2dbe 9517 65be adba 41bf 7e66 673e
000000d0: 4d38 5e3f d83f a8bf 5549 d1be 4b44 62bf
000000e0: 0502 07bf ee84 20bd 456b 5abe 1d6a d1be
000000f0: 042d 1bbf 883a c13d 70d0 2dbf 4ef5 6cbe
00000100: 1f5e a83d fa0d 6ebe 2ef8 c33d b403 45bf
00000110: 15fc b7bd 9fbc b2be 13c0 293f b283 8fbd
00000120: deec b2be 9505 04bf 76b1 783e 0fa4 0dbe
00000130: 6f28 98be ca1e 78be f4d1 19bf 1e52 a2be
00000140: 4ca6 1bbe 7611 e23d c4eb a5be ac5e 09be
00000150: f87b bebe 7727 a5bf f684 a9be 305d 0b3f
00000160: b9bc 1fbf 4594 efbc dad0 763c cea4 babe
00000170: 3073 653f 25b5 fe3d 0d83 94bd 4660 28bf

fc4.bias f4 [3]
0.5369163 1.5422626 -2.1091423
00000000: 5973 093f dc68 c53f 30fc 06c0
