dropoutmodel_model.pth (torch, 22084 bytes, 8 tensors)

fc1.weight f4 [32, 12]
00000000: 3b4d 85be 9726 93be be0b ac3a 2e55 863e
00000010: 4b6e 84be 3961 8ebe facc 30be 9214 9dbd
00000020: e9cb 20be f03a f3bb f504 933e 8de6 efbd
00000030: 170f 14be d733 53bc 4b89 8abe e40c 18be
00000040: 7cc3 7a3e c47b 943d db25 663e 6b5b e2bc
00000050: 98a8 64be 5c03 503e 386e 7dbe b698 033d
00000060: b11d 593e f7ca 57be 66bc 3e3e 229e 8c3e
00000070: 9a8f d1bb f644 8b3e 6961 213e 9dc3 32be
00000080: eaff e8bb c12c 46be d650 d03d 5e3e c93d
00000090: 52b6 023e fceb 593e 4623 8f3d 9e9d 8bbe
000000a0: e2e9 0e3e 8b03 f3bd c8da 74be a3fb 91be
000000b0: 26b3 743e 8b1f dc3d 42eb bdbd bf0e 5dbe
000000c0: b4b1 063e c011 303e 105f 93bb bffb 453e
000000d0: 93b7 463e d485 523e d7f2 91bd 3689 6abc
000000e0: f071 49be a8ef 86be 75ca 2abe a942 19be
000000f0: 0c43 b73d ffa5 f43d eb28 97be 7f3f 2dbb
00000100: 7bc2 423d 2cb1 623d 9f6e f9bd d237 4dbe
00000110: 64d7 69be ba44 3b3d cc09 8a3e dd0d 233e
00000120: 9f24 dcbd f55a 6cbe 82e3 293d f73b 7e3e
00000130: 507e 3fbe 19be d13d 6517 8ebd 4f16 6e3e
00000140: 344d 1b3d 1b4d c03d 754f c83c 3925 0b3e
00000150: 8041 6fbd 8c72 443e 91f3 76bd caed 103e
00000160: 5c6d 6abe fb26 0cbe e3b0 4a3e a5bf 493e
00000170: 962b 2e3e a4c6 c6bd 71ab 4ebd 8b94 88be
00000180: 0863 993d 630d 9abe 1834 32be 993d ed3d
00000190: 8641 0d3e a1c1 523e 2fa1 e5bd 6c3a 4abe
000001a0: 727c 153e 442e 1abe cd25 12be 67e3 00bd
000001b0: 09b7 833e 08cc 11bd cb3e fabd 2e48 003e
000001c0: 0526 a63d be10 31be 4dbf f03b 4977 8c3e
000001d0: 7a1e 6d3e aeba 71bc bd88 05be 9ceb 21bd
000001e0: 384d a63d f713 0bbe 1dcb e13d 9112 853e
000001f0: 367a 82bd 9dd1 60be dfd1 6d3e 7e69 90bd
00000200: 47e5 e6bd f073 033e 8912 6dbe 70eb 833e
00000210: 1097 023e 07fc 6d3e 5121 5a3e 301a d63d
00000220: eca9 5c3e 4259 503e 561c 76bd e91c dd3d
00000230: 4a75 393e 982a 273e 1535 8d3e 23e8 85bd
00000240: 1e59 d4bd 24ae 23be 7102 eebc c431 edbd
00000250: 22d1 85be 9724 843e 2e16 85be f3b7 6f3e
00000260: 79bd 8ebd 6b02 34be 4ea8 543e f083 13bd
00000270: 5a68 943d 8b27 7c3d d70a cfbd 6a72 38bd
00000280: 4779 78bd 2033 8f3e d6c7 1fbe 0148 6a3e
00000290: 0630 78be 2e06 793e 40e5 6f3e db7f 903e
000002a0: 11ad eabd 1f6f 3fbe 7f74 ad3d e990 4e3e
000002b0: 8eac 493e e7e6 8fbe f200 b93d cbc9 8cbe
000002c0: 3495 35be 4ea0 b23c 3bdb b03b c204 8fbe
000002d0: 8039 4e3e 144d 42bd 1c69 c13d 52ca 323e
000002e0: bc6a 093e c602 92bc 42d3 ea3d e041 603e
000002f0: 8f1e 2bbe 4a12 43be 832e 17bd 96fe 47be
00000300: 4dd3 62be e84a 803e 243b 183c c15b 813e
00000310: 97ff ea3d e3a7 cebd 03f9 29bc dd5d 7abe
00000320: 1d30 8f3c 044a 92be 4b63 ee3c 284c ffbd
00000330: 1c99 8bbe 4145 90be fd55 483d 9e0d 133e
00000340: 6e15 12bd eb03 8fbe ff77 073e 525c 60bd
00000350: 63c4 08be a385 093e a742 5cbe ee2b 88be
00000360: 14ff 9c3c bcd5 abbd 24bc 573e bc84 74be
00000370: e9be 1fbe 8425 143e 289d fc3d be77 a73d
00000380: c190 b43c 1d82 f23d 0668 37bd 4c64 d13d
00000390: ef73 03be e2e8 5ebe 2b06 6fbe 6ba9 8c3e
000003a0: caaa 03bd 85a7 3abe cf11 24be e73d 7b3d
000003b0: 26a1 39be 8441 43be ebe2 b2bd 9b1c d6bd
000003c0: 57af 603e 93dc 5d3e 150c 96be fbc6 08be
000003d0: 5b7f 89bd 1292 463e 2725 74be 397e 1fbe
000003e0: 5a4b 0bbc 8acf 313c 239e 223e e0ea bebd
000003f0: 427e 0d3e 0634 97be 0eb4 56be f713 edbd
-0.26035485 -0.2874038 0.0013126058 0.26236862 -0.25865397 -0.2780855 -0.17265692 -0.07669939
-0.15702786 -0.0074227974 0.2871472 -0.11713896 -0.14458881 -0.012890778 -0.2705787 -0.14848667
0.24488634 0.07250169 0.22475378 -0.027631482 -0.22329938 0.20313781 -0.24749076 0.03212806
0.21202733 -0.21073519 0.18626556 0.27464396 -0.0063952925 0.2720105 0.15759815 -0.17457433
-0.0071105855 -0.1935301 0.10171668 0.09826349 0.12764862 0.21281427 0.0698915 -0.2726869
0.13956407 -0.1186591 -0.23911583 -0.28512296 0.23896465 0.10748204 -0.092733875 -0.21587656
0.13153726 0.17194271 -0.0044974163 0.19334315 0.19405966 0.20558864 -0.07126396 -0.01431494
-0.1967237 -0.26354718 -0.16678794 -0.14966835 0.08948335 0.11945724 -0.29523405 -0.0026435552
0.047548752 0.055344746 -0.121793024 -0.20040825 -0.22836071 0.04571984 0.269606 0.15923257
-0.107491724 -0.23081572 0.041476734 0.24827562 -0.18700528 0.102413364 -0.06938056 0.23250698
0.037915424 0.09389707 0.02445195 0.13588418 -0.058412075 0.19184321 -0.060290877 0.1415321
-0.2289328 -0.13686745 0.1979404 0.19702013 0.17008814 -0.097058564 -0.050456468 -0.2667583
0.07489592 -0.30088338 -0.17402685 0.115840144 0.13794526 0.20581676 -0.11212384 -0.19748849
0.14598253 -0.15056711 -0.14272232 -0.031466868 0.25725582 -0.03559497 -0.12219008 0.12527534
0.081127204 -0.17291543 0.0073470236 0.27434757 0.23156157 -0.014753981 -0.13040443 -0.039531335
0.08120197 -0.13581835 0.11025069 0.25990728 -0.06370966 -0.21954961 0.2322459 -0.07051371
-0.112742 0.12837195 -0.23151602 0.25765562 0.12752938 0.23240672 0.21301772 0.104542136
0.21549195 0.20346549 -0.060085617 0.1079653 0.18111148 0.16324842 0.2757956 -0.06538417
-0.1036856 -0.15984398 -0.029053899 -0.11581758 -0.26136118 0.25809166 -0.25993484 0.23410015
-0.06969733 -0.17579047 0.20767328 -0.036014497 0.07246466 0.06156115 -0.101094894 -0.04503099
-0.060662534 0.27968693 -0.15603575 0.2287903 -0.2423707 0.24318764 0.23427296 0.28222546
-0.11458791 -0.18694733 0.084694855 0.20172466 0.1969473 -0.28105852 0.090333834 -0.27497706
-0.17732698 0.021804955 0.005397228 -0.27933317 0.20139122 -0.04743679 0.09443876 0.17459992
0.13419622 -0.017823588 0.114660755 0.2190013 -0.16710876 -0.19049945 -0.03690959 -0.1953071
-0.22150917 0.2505715 0.009291444 0.25265315 0.11474531 -0.100906156 -0.01037431 -0.24449869
0.017478997 -0.28572094 0.029100081 -0.124656975 -0.2726525 -0.28177837 0.04891013 0.14360663
-0.03566497 -0.27932677 0.13229369 -0.054775544 -0.13356166 0.13429885 -0.21509801 -0.26596016
0.0191646 -0.08390376 0.21067864 -0.23878759 -0.1560017 0.14467436 0.12334663 0.08177136
0.02204168 0.118412234 -0.04477694 0.10224208 -0.12837194 -0.21768525 -0.23342197 0.27473006
-0.0321453 -0.18227966 -0.16022418 0.06133833 -0.1812788 -0.19067961 -0.087346874 -0.10454675
0.21941887 0.21666174 -0.29306093 -0.13357155 -0.06713744 0.19391659 -0.23842297 -0.15575494
-0.008501852 0.010852704 0.15880637 -0.093221426 0.13817695 -0.29531878 -0.20967123 -0.115760736

fc1.bias f4 [32]
00000000: 9a42 793e ca66 7e3e 5ec3 8cbc 8810 85be
00000010: 2b70 8ebe 4a78 66be a026 86be 7fd1 61be
00000020: 8f12 35be be7d 8b3e 0500 92bc f987 41be
00000030: 047e 623e d66f 89be bba4 2bbe cb85 603d
00000040: a8e6 1fbe 782b d33d cef6 01be a3a1 abbd
00000050: 2c52 813e 6cfc 3ebe 9bd6 883e f7af 783e
00000060: 1013 0a3e d377 67ba a827 0c3e efe9 833e
00000070: 9eb0 32ba e177 043c 9f5a d2bc 654e ce3d
0.24341813 0.24843898 -0.017183002 -0.25989175 -0.27819952 -0.22506824 -0.26201344 -0.22052573
-0.17682861 0.2724437 -0.017822275 -0.18899526 0.22118384 -0.26843137 -0.16762058 0.054815095
-0.15615332 0.103110254 -0.12691805 -0.08380439 0.25258005 -0.18650979 0.2672623 0.24285875
0.13483834 -0.0008829806 0.13687003 0.25764415 -0.0006816479 0.008085222 -0.025677977 0.10073546

fc2.weight f4 [64, 32]
00000000: 39e1 c8bb 3c62 b03d 6210 d23d 4077 253e
00000010: eca4 e33c ce1b a33d 5bef 083e 5973 00be
00000020: 012d 173b 2d4d db3c 3909 153e e375 0c3e
00000030: 088b 10be 9eb9 9d3d 6d2d 923d ad91 1b3e
00000040: ec26 313e 0559 e1bd 1260 35be 09d0 273e
00000050: 1dc6 71bd aaa3 27bc 01bb 293c 1bd5 abbd
00000060: 1784 b03d 34be 10be e291 83bc bc34 8dbd
00000070: 1b75 1c3e ad68 03be 40ee 08bb e67c 20be
00000080: dbcd 0fbd 7b26 ff3d 1fac 0e3d 1e1f 21be
00000090: 488c afbd fa29 1dbe d615 c13d 56e1 76bd
000000a0: 3f5a 06bd 06c9 f3bc fa7c 21be 92ac 27be
000000b0: fa6c a53c 2a4d 24be 03f8 3abd 136c 9cbd
000000c0: 280e 65bc f4fe 29bd bde0 e3bd 3a36 35bd
000000d0: afc8 83bc 0cd5 003e d3dd d23d a947 21be
000000e0: 5bbc 31bd b48e f63d c465 403d 660d f73b
000000f0: a1db 51bd 89ac 133d b536 c73d 02f2 02be
00000100: f427 c3bd ea14 0dbe 0522 0cbe 1bfe 153e
00000110: 77a2 c0bc e6a6 ce39 0d0a 533d b304 34be
00000120: 7b42 3b3d 24fd 9abd 6620 173d 09eb 1ebd
00000130: 088e 243e 7397 16be 8076 1b3e 50c2 76bd
00000140: 0806 ecbd 7252 2d3e 2536 cdbd 353f 1ebd
00000150: 9a5b c8bd 03e6 993d 2baf 8abc d3b8 493d
00000160: f54c d63d 4b3c 17be 7369 c3bd 4c44 e4bd
00000170: d49e 32be bf67 b5bd 265d 09be 85d4 273e
00000180: 169e 5abd abf2 33be 6830 693d 7a21 b9bb
00000190: dd97 c1bd c0c4 06be 0999 163e 0f49 a13d
000001a0: d94a 5ebd 7b18 073e 4e9f 983d a79b 9ebd
000001b0: ba7b 203e 6b6c 6e3d 1d42 cabd 0796 9cbd
000001c0: 253b 91bc 3a7f 9d39 7043 30be 4d09 dbbc
000001d0: 1794 0dbe a2ae b13d f2b7 ee3d 13a7 68bc
000001e0: 35fa 1a3e c2b0 5ebd f289 99ba 52aa 8e3d
000001f0: c1fa 11be 154c 1bbe 2321 9bbd 1cd5 28be
00000200: d6c8 f93d 6b1e 043e afeb 9cbc 07c5 893c
00000210: 56f1 ff3d b28c bc3b a427 04be ed4b cabd
00000220: 0820 ff3d d49a 263d c351 ee3d 6411 80bd
00000230: 10e1 fcbd 025b 08bc 73d4 2f3e fc2a 23be
00000240: 9394 343e 0df5 c73d 4e1c 66bd 1440 a5ba
00000250: 3d81 9b3d 8c44 193e fe98 01be 4a27 153e
00000260: c084 133e d28b 203e a01e ecbc 7e4d 983d
00000270: 6657 343e b566 6b3d ed10 853d 8c3a d43b
00000280: 1144 2bbe 6790 023e b72b a0bd 1c6e f93d
00000290: d30f a33d 325d 95bd e794 b73d b16e f9bd
000002a0: 91ad 003d bfa8 7e3d 510c babb a368 da3d
000002b0: 0e7c a8bc 5152 3abe 81a3 05bc 18d2 3e3d
000002c0: 47fd 8d3d 6aef 97bd 5826 3cbe 293f 123d
000002d0: 3522 28bd 4c78 4a3c 17c8 0fbc 018d ec3d
000002e0: 7d31 30be 3e5e 15bd 38b2 28be 2dd8 1cbc
000002f0: e7c5 283c 998b 0d3e 1bcb 41bd a125 093e
00000300: 8488 d93d 40a6 323c 55b9 1ebd 6781 cdbd
00000310: d7df 343c 64cc 41be ff81 1bbe 233d e0bc
00000320: 8db5 203e 252d 8abd e6ca c23d a08d 99bc
00000330: a5e4 f13d c62a 46be a50d e1bb d8f4 bc3d
00000340: bbe7 f2bd abdb 523d 664a 5f3d 4940 0abc
00000350: ced9 0a3d 3d7f 003e 47e7 d53c a3f3 42bc
00000360: 27d0 dd3d 780b 89bd c613 9c3a 27dd b8bd
00000370: 6007 243e 6ddf 9b3d 1499 cf3d 3588 023d
00000380: 47ee d8bd 351f 5ebd f38f 1ebe 95bb 8f3c
00000390: ddca 0bbe 3383 e63d 7ead ba3d 916d 98bd
000003a0: f788 23bd 2fd0 2cbe 2733 3ebd ebb7 203e
000003b0: 317e e6bd f82f f53c c40c 253e a579 d2bd
000003c0: b612 29bb 437a 1a3e 402b a73c b6c4 91bd
000003d0: 5895 bb3d eddc d93d 519f 113e eb16 2d3e
000003e0: c666 52bd dc16 5dbd 16aa 8abd 58e5 1dbe
000003f0: 8db9 18be 1e43 963d 0572 42bc ff70 e73d
-0.0061303643 0.08612487 0.10257031 0.16158772 0.027788602 0.07964288 0.13372557 -0.12544002
0.0023067596 0.026770199 0.145543 0.13716845 -0.14115536 0.07701419 0.071375705 0.1519229
0.17300004 -0.11003307 -0.17712429 0.16387953 -0.059026826 -0.010231892 0.010359527 -0.08390256
0.08618944 -0.14135057 -0.016060773 -0.06894824 0.15279047 -0.128329 -0.0020893961 -0.15672645
-0.03510843 0.124585114 0.034832116 -0.15734527 -0.085716784 -0.15348044 0.09427993 -0.06027349
-0.03280091 -0.029758941 -0.15770331 -0.16374424 0.020193566 -0.16045061 -0.04564668 -0.07637801
-0.013980426 -0.041502908 -0.1112685 -0.044241168 -0.016086904 0.12581271 0.10296216 -0.15749992
-0.04339252 0.12038937 0.04697205 0.007539439 -0.051234845 0.036053214 0.097272314 -0.12787631
-0.09529105 -0.1377751 -0.13684852 0.14647715 -0.02351497 0.0003941573 0.051523257 -0.17579918
0.045717698 -0.07567814 0.036896132 -0.038798366 0.16069806 -0.14706211 0.15181923 -0.060243905
-0.11524588 0.16925982 -0.10020093 -0.038634498 -0.097830966 0.075145744 -0.01692923 0.049248528
0.10463897 -0.14769094 -0.09541597 -0.11145839 -0.174434 -0.088576786 -0.1341444 0.16389664
-0.05337342 -0.17573039 0.05693093 -0.0056497427 -0.09452794 -0.13160992 0.14706816 0.07875263
-0.0542706 0.13192932 0.0745226 -0.07744532 0.15672198 0.058208864 -0.09875891 -0.07645803
-0.017728398 0.00030040165 -0.17213225 -0.026737833 -0.13826023 0.08675887 0.116561785 -0.01419999
0.15134509 -0.054367788 -0.0011714085 0.0696608 -0.14255811 -0.15165742 -0.0757468 -0.16487545
0.121965095 0.12902229 -0.019155351 0.016817583 0.12497203 0.005754077 -0.12905747 -0.09877763
0.12457281 0.040675 0.116366886 -0.06253317 -0.12347615 -0.008322479 0.17170887 -0.15934366
0.17634802 0.097635366 -0.056179337 -0.0012607598 0.075930096 0.14967555 -0.12656018 0.14565769
0.14406109 0.15678337 -0.028823197 0.074366555 0.17611465 0.057470996 0.06497369 0.006476706
-0.16725184 0.12750398 -0.07820838 0.12179205 0.079620026 -0.07293166 0.08963948 -0.12179316
0.031415526 0.062172648 -0.0056777378 0.10664489 -0.020566966 -0.18195464 -0.008156658 0.04658708
0.069330744 -0.074187115 -0.18374002 0.035704765 -0.041048247 0.012357783 -0.0087757325 0.11550332
-0.17206378 -0.03646683 -0.16474235 -0.009573025 0.01030109 0.13822784 -0.047312837 0.1339326
0.106217414 0.010903895 -0.038750965 -0.10034447 0.011039696 -0.18925625 -0.15186308 -0.027372902
0.15694256 -0.06746892 0.09511356 -0.01874429 0.118111886 -0.19352254 -0.0068680816 0.09226388
-0.11860605 0.051479023 0.05451431 -0.008438178 0.03389912 0.12548538 0.026111258 -0.011898908
0.108307175 -0.066916406 0.0011907748 -0.090265565 0.16018438 0.076109745 0.10136619 0.03186818
-0.10592323 -0.05422898 -0.154846 0.0175455 -0.13651605 0.11255493 0.09115122 -0.07442773
-0.03992554 -0.1687629 -0.0464355 0.15695159 -0.11254538 0.0299301 0.16118151 -0.10277108
-0.0025798506 0.15085702 0.020406365 -0.07117598 0.091593444 0.106378414 0.1422093 0.16903274
-0.051367544 -0.05397688 -0.067707226 -0.15419519 -0.14914532 0.0733702 -0.011868005 0.11300849

fc2.bias f4 [64]
00000000: 94e7 32bc cc35 d8bd c676 0f3e 65ba 4dbd
00000010: e93b 473d 872e 2fbe e92c 00bd 1404 99bc
00000020: feb3 2cbe e556 8cbd 298b d4ba 95eb 34bc
00000030: 88be 12be 4224 983d effd 1fbe a1f0 f83d
00000040: 010f 523d 98ec a03d bba5 263e 0d97 be3d
00000050: cd55 bebc 187b 12bd bd22 18be 1570 2e3d
00000060: c588 223d a045 ddbd 8747 d1bd 12e4 38bd
00000070: 7e6f 38be 0e82 86bd e976 aebd 5c51 2bbe
00000080: 800f 6e3d fb08 6e3d 6f88 5e3d 170d 143d
00000090: 1fd5 52bd e330 ac3d 535a 58bd 82b3 043e
000000a0: 2394 293d 33f8 e23b 2e74 71bc a4cd d03d
000000b0: aabc b4bd f7c4 debd c8cd d8bd 6533 0cbe
000000c0: f3f6 fbbd d7e4 183e 3574 463a a1f0 bb3d
000000d0: 9431 a5bd a22e 303e 4a16 aebb 2530 02be
000000e0: 43b6 6fbb 49f1 183e 5645 013e 59a8 dbbd
000000f0: 968b 203d 97e4 6b3c e59e e23d 4ff7 853d
-0.01091947 -0.10557136 0.14010152 -0.050226588 0.04864112 -0.17107593 -0.03129283 -0.018678702
-0.16865537 -0.06852511 -0.0016215789 -0.011042495 -0.14330494 0.07428791 -0.15624212 0.12155271
0.05128384 0.07857627 0.16274159 0.093061544 -0.023234272 -0.035761923 -0.14857002 0.04258736
0.039681215 -0.108042955 -0.10218721 -0.04513938 -0.18011281 -0.06567775 -0.08518774 -0.16730255
0.05812025 0.058114033 0.054329332 0.036145296 -0.05147278 0.08407762 -0.052820515 0.12959102
0.04140104 0.0069265603 -0.014737172 0.10195473 -0.08825047 -0.10877412 -0.10586125 -0.1369148
-0.12302961 0.14931045 0.0007570417 0.09176756 -0.08066097 0.17205289 -0.0053127157 -0.12713678
-0.0036577142 0.14935793 0.12624106 -0.10725469 0.03919562 0.014397762 0.11065463 0.06541311

fc3.weight f4 [32, 64]
00000000: 1f9a a6bd 1677 b4bd c07b bfbd b809 d9bd
00000010: b09a ce3d 7766 e43c ffcf 8ebc d087 2fbc
00000020: b240 afbd bac0 9fbc 36fb e8bd 5ca5 19bd
00000030: b2d5 fa3d cce1 febc caf9 3fbd d021 8bbc
00000040: b2ed abbc ba49 91bd 0014 a1bd 7dc0 11bc
00000050: c0df c53b f796 453d e279 183d 9da7 0dbd
00000060: 18b1 f43c e699 523d c1c8 69bc 7c93 8abd
00000070: 08e5 0b3d 6621 9d3d 46fa 993d 36e8 d63d
00000080: 1802 21bd becf 84bd 406c 653d 1457 a8bd
00000090: 400e 003e 2b12 8ebd 4069 8dbd 4068 6cbb
000000a0: ca9d dfbd 0c73 51bd 86bd c4bd 683d 99bd
000000b0: 22f2 83bd 1848 9a3d 3d2f 0d3d 044d 4e3d
000000c0: 72bb 013d 9d95 d03d d8b8 1b3d 4098 f1bb
000000d0: 535f ccbd 84a9 2cbd 3cff 8e3d ec3a 31bc
000000e0: de0d cbbd 3265 d53d 9c83 253d 1508 513d
000000f0: 98bb d2bd fb4d 103d 962c eabd 0ec5 edbd
00000100: f19a a73d 1c23 e3bd ba98 f03d 7879 f43d
00000110: a143 263d 09f6 83bd ce29 88bd 7067 9cbc
00000120: 8ae8 233d 6dc8 0c3d 00b0 b9ba 5077 08bc
00000130: e811 843d fa2b 823d 9f10 2e3d e0b8 4abc
00000140: 82cf 0c3d c2c7 a2bd 0c53 c53d 0058 c73d
00000150: 3076 f0bc 8e9b 3bbc 2a4f 02be 7a01 4d3d
00000160: 33ec 893d 80e3 9fbd 6bc9 97bd 8c4a b03d
00000170: 4da9 e93d 707e f5bc 1e0f e0bd b87e 713d
00000180: 2e91 e13d 2b20 3b3d 3e59 f5bd 5785 2b3c
00000190: 394e 163d b930 04bd 5466 d8bd c4f5 57bd
000001a0: ec86 81bd cc30 483d a8fb c5bc 60e0 85bd
000001b0: 468e af3d c8e8 b53c 5537 d63c d4bc e8bc
000001c0: a16f ae3d 12a8 7fbd c274 c23d 285c 8c3c
000001d0: 97ec 1b3d ce6e d43d a8e1 09bd edee 2abd
000001e0: 18ae 353d 2c83 5cbd c2b6 c63d 6764 66bd
000001f0: 986f f03c e30b 7d3c 40ba a0bc 6809 7ebd
00000200: d6d1 84bd 3c09 803d de92 e13d 82f0 803d
00000210: 7c0d e5bd 9777 583d 311b 8fbd 987b 9fbc
00000220: 1667 e73d 18f9 81bd 6c56 0d3d 72fb f3bd
00000230: 26da d53d c5bb 44bd 7c9a e0bb f0d6 263c
00000240: 0dea 9fbb 7a47 a93d 2950 1f3d 340a 973d
00000250: 7cd0 fdbd c3f7 ac3d 428e ae3c dd74 7d3d
00000260: e141 f9bc ef55 273d 9524 12bd 7061 213c
00000270: 0127 79bd 9ead c63d dd57 e53d 1c44 b63d
00000280: 40d7 2b3c 2cfe 833d a6fe d13d 99f8 8e3d
00000290: f22d efbd ef3a 9e3d 6a24 e03d f0e8 fd3c
000002a0: 3857 da3c 80c7 bebd 1e10 ddbd 8afd 46bd
000002b0: c664 003d 6e3f 963d 85a6 d3bd de1c 193d
000002c0: 2547 953a cb0a bebd c0ee b2bc f4af f0bd
000002d0: 4450 493d b005 033c 6440 b33d b598 a9bb
000002e0: e063 f13b 62e1 543d b846 4b3d 492d 413c
000002f0: 3847 5f3d 3948 aabd 4496 263d 1cee 85bd
00000300: a0ec 383d c017 86bb 8092 1cbd 2a79 d8bd
00000310: e240 9dbd 2020 7e3d 3494 81bd d4bb 1f3d
00000320: a859 1b3d 3e26 99bd 3c54 f6bd c0e0 febc
00000330: 6236 c43d 703b 20bc 1821 4d3d ea57 b53d
00000340: a41d 593d 0eef c73d 7851 af3c 7c5b 5f3d
00000350: 2c24 c23d 3c24 e6bd f010 f13c e03e b9bd
00000360: 305e 543c ca6e e9bd a4c3 a1bd 0471 503d
00000370: 76fb 86bd 98f9 d8bd 220a f8bd 301b 143c
00000380: 9472 35bd aa2a f2bd 0cb4 f43d 98fb 76bd
00000390: 803e 23bb d093 5d3c 14b0 88bd 808e 513d
000003a0: f0ed 24bc f4b0 723d 54a9 50bd 00b6 623d
000003b0: 586d 743d 92e2 d8bd e897 d23c d2e0 9ebd
000003c0: 5257 efbd 8843 f3bd 58c2 75bd da5e e23d
000003d0: 44e1 16bd d88c 44bd ce50 8fbd 7a77 b9bd
000003e0: d89a d6bc d00f 763c 6047 f83b 1458 0abd
000003f0: dc3b bd3d 90fc cebd f411 b43d f08e 03bc
-0.08134865 -0.08811776 -0.09349775 -0.10597557 0.10088098 0.02788089 -0.017433165 -0.010713533
-0.085572615 -0.019501079 -0.1137604 -0.037511215 0.122477904 -0.031113528 -0.046869077 -0.016983896
-0.020987365 -0.0709414 -0.07865143 -0.00889599 0.006038636 0.048239674 0.03722561 -0.034583677
0.029869601 0.0514163 -0.014269055 -0.06766412 0.034153968 0.07672386 0.07518439 0.104935095
-0.039308637 -0.06484936 0.05601144 -0.08219734 0.12505436 -0.06937059 -0.069048405 -0.003607288
-0.10918768 -0.051135108 -0.09606461 -0.074824154 -0.064426675 0.07533282 0.034468878 0.050366417
0.031672902 0.101847865 0.038018078 -0.007372886 -0.09979119 -0.04215385 0.06982276 -0.010817271
-0.09914754 0.10419692 0.040408716 0.0510331 -0.10289687 0.035230618 -0.11434285 -0.11609851
0.081838496 -0.11090681 0.1174788 0.11937231 0.04059184 -0.06443412 -0.066485986 -0.019092292
0.04001669 0.03437083 -0.0014166832 -0.008329228 0.06448728 0.06356044 0.04249632 -0.012373179
0.034377582 -0.07948257 0.096349806 0.097335815 -0.029353231 -0.011450661 -0.12725511 0.050050236
0.067345046 -0.07807064 -0.07411464 0.08607969 0.11409245 -0.029967517 -0.109403834 0.05895874
0.11014019 0.045684975 -0.11979912 0.010468802 0.036695693 -0.032273028 -0.105663925 -0.052724615
-0.063245624 0.04887466 -0.02416785 -0.06536937 0.085720584 0.022205725 0.026149431 -0.028410353
0.08517385 -0.062416144 0.09494926 0.017133787 0.038067427 0.10372697 -0.03366247 -0.041731764
0.044355482 -0.053836033 0.09702827 -0.056248095 0.029350087 0.015444729 -0.01962006 -0.06202069
-0.064853355 0.06251761 0.11014341 0.06295873 -0.111842126 0.052848425 -0.06987608 -0.019468114
0.11298959 -0.06346339 0.034506246 -0.11913194 0.10441999 -0.048030633 -0.0068543535 0.010183081
-0.004880196 0.08265586 0.038894806 0.07374993 -0.12393281 0.08445694 0.021308068 0.061879028
-0.030426921 0.040853437 -0.03567942 0.009849891 -0.060828213 0.097010836 0.11198399 0.088997096
0.010488331 0.06444964 0.102536485 0.0698101 -0.11678685 0.077260844 0.109444454 0.030994862
0.026652917 -0.09315395 -0.1079409 -0.048581637 0.031346105 0.07336317 -0.103344955 0.037381046
0.0011389 -0.09279402 -0.02184236 -0.117523104 0.049148813 0.0079969615 0.08752516 -0.005175675
0.0073666424 0.051972754 0.04962799 0.011790582 0.05451128 -0.08314557 0.04067065 -0.065395564
0.04514754 -0.0040921867 -0.03822565 -0.10569985 -0.07678391 0.062042356 -0.06327096 0.038997486
0.0379273 -0.07477997 -0.12027785 -0.031113029 0.09580685 -0.009779796 0.05008039 0.08854659
0.053006783 0.09762393 0.021401152 0.054530606 0.094795555 -0.1123738 0.029427022 -0.090451956
0.012961909 -0.113980845 -0.078986436 0.05088903 -0.06590931 -0.10594481 -0.12111308 0.009039685
-0.044298723 -0.11824544 0.11948404 -0.060298532 -0.002490908 0.013524011 -0.06674209 0.05116129
-0.010066494 0.059250787 -0.050942734 0.05534935 0.05967459 -0.1059009 0.0257072 -0.07757725
-0.11686577 -0.11878115 -0.059999794 0.11053248 -0.036835924 -0.04798588 -0.06997834 -0.090559915
-0.026196882 0.015018418 0.007576868 -0.033775404 0.09239933 -0.10106766 0.08792487 -0.008029684

fc3.bias f4 [32]
00000000: 3f8d e03c 1af8 01be f7de cfbd 5c5e 3abd
00000010: de81 1bbc 78ad 1f3d 9e24 c83d 80ac a33c
00000020: 003b 203b 9acc 0d3d d1fd 37bb a7aa d3bd
00000030: 22e9 10bd 7aab 9cbd a701 b9bd e0b8 f8bc
00000040: 37b4 00be 034a d0bd d90e 1fbd 1092 103c
00000050: a17a b53d 300c fbbc ac6c b33c 6293 c1bd
00000060: c6f1 43bd 48e7 57bd a033 75bc 96b5 813d
00000070: 2689 53bd ca2f 8a3d f074 873c 2ff4 ffbd
0.027411101 -0.126923 -0.10149949 -0.045500144 -0.009491412 0.038983792 0.09772609 0.019979715
0.002444923 0.03461895 -0.002807487 -0.10335284 -0.035378583 -0.07649894 -0.09033518 -0.030361593
-0.12568747 -0.101703666 -0.03883252 0.0088238865 0.0886128 -0.03064546 0.021902405 -0.09451939
-0.047837995 -0.0527108 -0.014965922 0.06333463 -0.051644467 0.06747396 0.016535252 -0.12497746

fc4.weight f4 [3, 32]
00000000: cb41 2dbe 12c3 283c e4b9 9bbc c84a b6bd
00000010: 5e9c 72bd 8fad a7bd d278 02be ebbc 553d
00000020: f232 ce3d cc11 48bb 1fd2 0dbd ca41 dcbb
00000030: 0645 853d 99dd 81bc aaa1 02bd 2235 0ebe
00000040: 2b9c cfbd 38dd 113d 0aea 81bd affc 9f3d
00000050: a5a0 03be 6699 78bd e2b5 403d 406c 2f3e
00000060: aae7 1d3d 8d3c 0dbe d6e3 0b3e 27ee 82bd
00000070: 39f8 a7bc ec0b d93c 1d31 e73d 1934 803d
00000080: 73f2 343c 726b 7ebd cf42 973d 4807 f23d
00000090: f3ff 37bc cca3 58bb db33 cabd 6dbe 473c
000000a0: a303 033e 62b0 ba3c e0e8 3bbd e875 28be
000000b0: f7ca 1fbd e08d 3bbd 85da 713c 7856 993d
000000c0: fa76 953d 51c2 f7bd 281f 0f3e 53b7 2d3e
000000d0: 22da cc3d fd3f 71bd ca73 17be b968 c9bc
000000e0: 9f09 d93d 3a82 993c cd2e cebd 38b2 df3d
000000f0: c1ce e33d b9df b33c f3f9 8b3d 970a 5cbd
00000100: df33 ccbd f27e e1bd 6dde 9e3d 45f5 09be
00000110: 68f5 1a3d cce6 1abe e46b bcbd a09f adbc
00000120: 7659 54bd cf94 b9bd 9325 b03d c00a f4bd
00000130: c21b 5fbd 1b9d 363d 08e0 03be 284b 41bd
00000140: 3c63 b03d f4e3 f0bd 15b0 22be 41b1 7e3b
00000150: b7a1 143d 246b aa3d 880c 4ebd 5fd5 df3d
00000160: c679 033e 2900 ef3d ab16 293d 0179 033e
00000170: 4bec f8bd a912 b5bd 956f 3fbd a10d 213e
-0.1691963 0.010300415 -0.019009538 -0.08900982 -0.059231155 -0.081874005 -0.12741402 0.05218212
0.10068311 -0.0030528186 -0.034624215 -0.00672171 0.06507306 -0.015852736 -0.031892456 -0.13887456
-0.101372086 0.03561136 -0.063434675 0.078118674 -0.1285425 -0.060693167 0.047048457 0.17131138
0.03855101 -0.1379263 0.13661131 -0.0639308 -0.020504104 0.026494943 0.112886645 0.06259937
0.0110441325 -0.062114187 0.073857896 0.11817795 -0.011230457 -0.0033056615 -0.09873172 0.012191397
0.12794356 0.022789184 -0.045876384 -0.16451228 -0.03901192 -0.0457896 0.014761572 0.07487196
0.072980836 -0.1209761 0.13976729 0.16964464 0.10002543 -0.058898915 -0.14790264 -0.024586068
0.10597538 0.018738855 -0.1006752 0.109226644 0.111234196 0.021957265 0.068347834 -0.053721037
-0.09970831 -0.11010541 0.07757268 -0.13472469 0.037831694 -0.15127105 -0.09200266 -0.02119428
-0.05184313 -0.09061586 0.08600917 -0.11916113 -0.05446983 0.04458342 -0.1287843 -0.047190815
0.086126775 -0.117622286 -0.15887482 0.0038862976 0.036287036 0.08321217 -0.05030492 0.10929369
0.12839422 0.116699524 0.041281383 0.12839128 -0.12154444 -0.0884145 -0.046737272 0.15727855

fc4.bias f4 [3]
00000000: 21bd 32be 8258 f03e 894b 2cbe
-0.1745496 0.46942526 -0.1682569
