tuned_model.pth (torch, 22000 bytes, 8 tensors)

fc1.weight f4 [32, 12]
0	0xbc05c56d	-0.008164746
1	0xbe0d9b15	-0.1382869
2	0xbde77957	-0.113024406
3	0x3ca6d59d	0.02036553
4	0x3c4ec8e4	0.012621138
5	0x3dc09385	0.09403137
6	0x3e916496	0.28397053
7	0x3e6ed678	0.23324001
8	0x3b3d789a	0.0028910995
9	0xbd4e6a81	-0.05039454
10	0x3e79b8f4	0.2438696
11	0x3e556a4b	0.20841329
12	0xbe115c92	-0.14195469
13	0xbca55a3d	-0.02018463
14	0xbe54caa6	-0.20780429
15	0xbe0546d0	-0.13015294
16	0x3d4d89d4	0.05018027
17	0xbe8e9c29	-0.27853516
18	0xbd1e5608	-0.038656265
19	0x3e59a73a	0.21255198
20	0x3cbffbbc	0.023435466
21	0xbb8336d1	-0.0040043374
22	0x3e58e3e4	0.21180683
23	0x3d4d0d56	0.050061546
24	0xbd7642a5	-0.06012215
25	0xbd27616c	-0.040864393
26	0xbd9dcd8f	-0.07705223
27	0xbe44a15d	-0.1920218
28	0x3dfc21b4	0.12311116
29	0x3e18c9db	0.14920752
30	0x3e817a4e	0.25288624
31	0x3e2765fa	0.16347495
32	0x3e0c78b2	0.13717917
33	0x3d10ffc3	0.035400163
34	0xbdb4a47e	-0.08820437
35	0x3e184222	0.14868978
36	0xbe6d9a8e	-0.23203489
37	0x3e230559	0.15920009
38	0xbdb2ccba	-0.08730455
39	0x3e7ee3cb	0.24891584
40	0xbd656a20	-0.05600941
41	0xbe08076c	-0.13284081
42	0x3e8abffb	0.27099594
43	0xbe81bcec	-0.25339448
44	0xbe0713ed	-0.13191195
45	0xbe7641fa	-0.24048606
46	0x3c919657	0.017771883
47	0x3c910e60	0.01770705
48	0xbc313d1a	-0.01081779
49	0xbe92be66	-0.28660887
50	0xbf0e482f	-0.55578893
51	0xbf2ac56d	-0.667075
52	0xbea2d7fb	-0.31805405
53	0xbeb9932f	-0.36245105
54	0xbe220fa2	-0.15826276
55	0xbf20b97e	-0.6278304
56	0x40012121	2.017647
57	0x3e05079f	0.12991188
58	0x3e9fbbf1	0.31198075
59	0x3f261380	0.64873505
60	0xbe9174ff	-0.28409573
61	0xbd327047	-0.043564107
62	0x3daba777	0.08381551
63	0xbd469ff5	-0.04849239
64	0xbe4bb8cc	-0.19894713
65	0x3dfee4de	0.12445997
66	0x3d9a0aa1	0.075215586
67	0x3e767743	0.24068932
68	0x3e87949d	0.2648057
69	0xbe12002d	-0.1425788
70	0x3e3c9658	0.18416727
71	0xbdc31802	-0.095260635
72	0xbb35db51	-0.002774913
73	0xbdc2308a	-0.09481914
74	0x3fa7f49b	1.3121523
75	0x3f0cc5b9	0.549892
76	0x3f5016a1	0.8128453
77	0x3e7b58a5	0.24545534
78	0x3eaefc43	0.34176835
79	0x3f8d2c09	1.1029063
80	0xc05534c5	-3.3313458
81	0xbf5464ac	-0.82966113
82	0xbe834fbf	-0.2564678
83	0xbf1a8a84	-0.6036761
84	0xbe1368f3	-0.14395504
85	0x3e28f31a	0.16498986
86	0x3e042f60	0.12908697
87	0x3d29fdbd	0.04150175
88	0x3e73cbb7	0.2380818
89	0x3d5b5297	0.05354556
90	0x3dc4fc15	0.09618393
91	0x3c307cb0	0.010771915
92	0x3d1c0832	0.038093753
93	0x3e3dfd72	0.18553713
94	0x3e2615e5	0.1621929
95	0x3ddcd26c	0.10782322
96	0xbc692c0d	-0.014231694
97	0xbf9288b9	-1.1447974
98	0xc00c0624	-2.1878748
99	0xbf8eed91	-1.116625
100	0xbfcb90a6	-1.5903518
101	0xbe69d772	-0.22836092
102	0xbfbdfe2c	-1.4843192
103	0xbfea4508	-1.8302317
104	0x3feec5c3	1.8654102
105	0x3f21db0c	0.63224864
106	0xbf4bde8c	-0.79636455
107	0xbfa20828	-1.2658739
108	0x3cd21301	0.025643827
109	0x3f3eb940	0.7450142
110	0x3fdbf76e	1.7184885
111	0x3f7b111d	0.9807299
112	0x3ee0165a	0.43767053
113	0x3e7371cb	0.23773877
114	0xbf755d8f	-0.95845884
115	0x3f9838c0	1.1892319
116	0xc11acc79	-9.67492
117	0xbfcc8200	-1.5977173
118	0xbc9e6e96	-0.01933984
119	0xbeddef01	-0.43346408
120	0xbe7db6f5	-0.24776824
121	0x3e31f278	0.1737765
122	0xbe776217	-0.24158512
123	0x3e6ee854	0.23330814
124	0x3e86ab00	0.26302338
125	0x3e8584a3	0.26077756
126	0xbe8146ec	-0.25249422
127	0xbe9097b5	-0.28240743
128	0xbe64f40f	-0.22358726
129	0x3e8cdd15	0.27512422
130	0xbe416579	-0.18886365
131	0xbe815889	-0.2526286
132	0xbdb17526	-0.086649224
133	0xbe87cb89	-0.26522473
134	0xbe77a152	-0.24182633
135	0x3c3b145c	0.011418428
136	0xbe7ea8d2	-0.24869087
137	0xbe0d3c43	-0.1379252
138	0x3e2a32bb	0.16620915
139	0xbe6ca08c	-0.23108119
140	0x3e2d4a50	0.16922879
141	0xbdc6ac1a	-0.097007945
142	0x3e5e6bb1	0.21720769
143	0xbe2d710a	-0.16937652
144	0xbb831d5b	-0.004001302
145	0x3d02e8cd	0.031960297
146	0x3c347e46	0.011016434
147	0xbe6b5134	-0.22980195
148	0xbd9023a6	-0.070380494
149	0xbe780950	-0.24222302
150	0x3e73793f	0.2377672
151	0xbe719c60	-0.23594809
152	0x3d1d6401	0.03842545
153	0xbd2211cf	-0.039567765
154	0x3e22a4db	0.158832
155	0xbe941e5b	-0.2892941
156	0xbdbb50e9	-0.09146292
157	0x3d64513f	0.055741545
158	0x3e39b5ac	0.18135709
159	0x3dbb1b61	0.091360815
160	0xbdd54cd9	-0.10415048
161	0x3d84296e	0.064532146
162	0xbca868c4	-0.020557769
163	0xbe0433f5	-0.12910445
164	0xbe65cbff	-0.224411
165	0xbe86e175	-0.26343885
166	0xbe81208c	-0.25220144
167	0x3e84783f	0.2587299
168	0xbbd154d6	-0.006388287
169	0x3f044b5e	0.516775
170	0x3ffad088	1.9594889
171	0x3f62b899	0.88562924
172	0x3f89a3af	1.0753077
173	0x3e8036c1	0.25041774
174	0x3f47169c	0.77768874
175	0x3f93caee	1.1546304
176	0xc03aba91	-2.917637
177	0xbf61dabe	-0.882244
178	0x3ef55994	0.47919905
179	0x3d47f187	0.048814323
180	0x3c1fdd28	0.009757318
181	0x3fab2f97	1.3373898
182	0x408815d6	4.2526655
183	0x40969b9f	4.7064967
184	0x4044a499	3.0725462
185	0x3fe2f956	1.7732341
186	0xbf6ae0cc	-0.9174926
187	0x40055bb3	2.0837219
188	0x404cb651	3.1986277
189	0xc0e58754	-7.1727695
190	0xbf25d43f	-0.64776987
191	0xbf767481	-0.9627152
192	0xbe29b011	-0.1657107
193	0x3d073e5c	0.033018455
194	0x3e05c7b0	0.13064456
195	0xbddc0646	-0.10743384
196	0x3d8092c6	0.06277995
197	0xbdd41c1e	-0.103569254
198	0x3d8d9c01	0.06914521
199	0x3db24ab7	0.08705657
200	0x3db2c886	0.08729653
201	0xbe1e6e39	-0.15471734
202	0xbe860e8a	-0.26182967
203	0xbe66d236	-0.22541127
204	0xbd008fcd	-0.03138714
205	0xbee8ba23	-0.4545451
206	0xbfc5f359	-1.5464889
207	0xbf0f9c6b	-0.5609805
208	0xbf09c9db	-0.5382363
209	0x3d852b17	0.06502359
210	0xbec320f6	-0.38111085
211	0xbf96c3c1	-1.1778489
212	0x409be857	4.872112
213	0x3fb639aa	1.4236348
214	0xbf23a882	-0.63929
215	0xbf95a62a	-1.1691334
216	0xbe38e67e	-0.18056676
217	0xbdf8cae2	-0.12148072
218	0xbd301f60	-0.04299867
219	0xbd138e71	-0.036024515
220	0xbc0f354f	-0.008740737
221	0xbe468931	-0.19388272
222	0x3e1541d3	0.14575891
223	0x3d4565d8	0.04819283
224	0x3e2355ba	0.15950671
225	0xbe897337	-0.26845714
226	0xbe16c136	-0.14722142
227	0xbe2dbbc3	-0.16966157
228	0xbe2c5b46	-0.16831693
229	0x3dd3f018	0.103485286
230	0xbe682ad6	-0.2267259
231	0xbdd76de7	-0.10519009
232	0x3cb9dfd6	0.022689741
233	0xbd1b51ae	-0.037919693
234	0xbe5a9cfa	-0.21348944
235	0x3e23ed7d	0.16008563
236	0x3d339d70	0.043851316
237	0xbe495ad7	-0.19663559
238	0x3daddf04	0.084898025
239	0xbe43fa7c	-0.19138521
240	0xbd3a7032	-0.045517154
241	0x3fb47b13	1.4100059
242	0x3f6f4e5c	0.9347894
243	0x3f538862	0.8262998
244	0x3faac9b3	1.3342804
245	0x3f34570a	0.7044531
246	0x3fedc268	1.8574953
247	0x3f821d95	1.0165278
248	0x4062d192	3.5440412
249	0x3f2c875b	0.67394036
250	0x3fa254f8	1.268218
251	0x3fd44a2e	1.6585138
252	0x3cb0537b	0.021524182
253	0x3f1f5dc6	0.6225246
254	0xbf38f431	-0.72247607
255	0xbd4e872f	-0.05042189

fc1.bias f4 [32]
0	0x3e3e2cf4	0.18571836
1	0xbd97751d	-0.073953845
2	0x3e1a4e55	0.15068944
3	0x3e51ae67	0.20476685
4	0xbfac47a5	-1.3459364
5	0xbd5381bf	-0.051637407
6	0x40230956	2.5474448
7	0x3d8ba74c	0.06819019
8	0xc08ae565	-4.3405023
9	0x4117479c	9.454983
10	0xbddf561d	-0.10905097
11	0x3e58ccd3	0.21171884
12	0x3d83dbff	0.06438445
13	0x3ab7fd64	0.0014037308
14	0x40740d45	3.81331
15	0x411c782f	9.779342
16	0x3e09726a	0.13422552
17	0xc0a79e99	-5.23811
18	0xbe3d0bed	-0.1846158
19	0x3dc11e57	0.09429615
20	0x3f56858a	0.83797514
21	0xc105547c	-8.333126
22	0x405b4f3d	3.4267113
23	0x3f53d478	0.82746077
24	0x3ede1dd2	0.43382126
25	0xc10dbb70	-8.858261
26	0x3dcf3cca	0.101190165
27	0x3d4d5848	0.05013302
28	0x40c8a549	6.2701764
29	0x3e931c40	0.2873249
30	0xbdfd6dae	-0.12374435
31	0xbb86fa6a	-0.004119207

fc2.weight f4 [64, 32]
0	0xbd8e4c65	-0.06948165
1	0x3e2ddd11	0.16978861
2	0xbdf7f012	-0.12106337
3	0xbd5d9393	-0.054095816
4	0x3c7241f3	0.014786231
5	0x3c10e0d0	0.008842662
6	0xbd358a24	-0.044321194
7	0x3ca6ac80	0.020345926
8	0x3dd02423	0.101631425
9	0xbe0aab5e	-0.13541934
10	0x3c05eff6	0.008174887
11	0xbc2d134f	-0.010563686
12	0x3e272639	0.16323175
13	0xbd62a46e	-0.055332594
14	0xbe068b57	-0.13139091
15	0xbe5463ae	-0.2074115
16	0x3e132925	0.14371164
17	0xbccee0ff	-0.02525377
18	0x3cb096a9	0.021556215
19	0xbdafdd58	-0.0858714
20	0x3d4b0d80	0.04957342
21	0xbd0f2924	-0.034951344
22	0xbda24b3e	-0.079245076
23	0xbd66fbbd	-0.05639242
24	0xbd69ebf7	-0.0571098
25	0x3c0f4334	0.00874405
26	0xbdb59e64	-0.08868101
27	0x3da1dc48	0.079033434
28	0xbdef5657	-0.1168639
29	0xbe0ca561	-0.13734962
30	0x3e2df6bf	0.16988657
31	0xbdf1b627	-0.11802321
32	0xbd0333a3	-0.032031666
33	0x3d74b1ed	0.059739996
34	0x3e0df42c	0.13862675
35	0x3da25800	0.07926941
36	0xbd3afbf2	-0.04565043
37	0xbc54337a	-0.012951726
38	0x3e17bef7	0.14818941
39	0x3cc7a438	0.024370298
40	0xbe341af9	-0.17588414
41	0x3ddf4aad	0.10902915
42	0x3c7f450a	0.015580425
43	0x3e196d9b	0.14983217
44	0xbe2f5022	-0.17120412
45	0xbdede3c5	-0.11615709
46	0xbc4ebc34	-0.012618113
47	0xbe1d9b45	-0.15391262
48	0x3dca3e07	0.09875112
49	0xbdb358a7	-0.087571435
50	0xbd72c06f	-0.05926555
51	0xbe031a78	-0.12803066
52	0xbda79a69	-0.08183748
53	0xbe25fd1e	-0.16209838
54	0x3c594012	0.013259904
55	0xbe22df29	-0.15905441
56	0xbe1c4add	-0.15262933
57	0x3e084b55	0.13309987
58	0xbd44a2d2	-0.04800684
59	0xbd7c0b2f	-0.061534103
60	0x3e26961b	0.16268198
61	0x3e2b5a0c	0.16733569
62	0xbd79203c	-0.060821757
63	0x3d1cade1	0.03825176
64	0x3ddc7f6b	0.107664905
65	0x3d701345	0.058612127
66	0xbca3a1e4	-0.019974656
67	0xbe27c828	-0.16384947
68	0xbd6bb5d7	-0.057546463
69	0x3dd6a081	0.104798324
70	0xbdedc2e9	-0.11609442
71	0xbd8c01e8	-0.06836301
72	0xbe350f06	-0.17681512
73	0xbde9596d	-0.1139401
74	0xbe19c25d	-0.1501555
75	0x3e143065	0.14471586
76	0x3d38155a	0.044942237
77	0xbe2f4065	-0.17114408
78	0x3d710685	0.058844108
79	0xbe4d396c	-0.20041436
80	0x3ce1c2b5	0.027558664
81	0xbdc70eaa	-0.09719594
82	0x3e1452c3	0.14484696
83	0x3e0f97a3	0.14022689
84	0xbdc46ab3	-0.09590664
85	0xbd7169f8	-0.05893895
86	0xbe446659	-0.19179668
87	0x3d55187e	0.05202531
88	0xbdb37816	-0.08763139
89	0x3d126931	0.03574485
90	0xbd961a94	-0.07329288
91	0x3d81b2fe	0.06332968
92	0xbc351757	-0.011052928
93	0x3db1fe20	0.086910486
94	0xbdedff80	-0.116209984
95	0xbe2c4c86	-0.16826066
96	0x3c84650b	0.016161462
97	0x3b9f84a7	0.0048681083
98	0xbe3080ea	-0.17236677
99	0x3db195f9	0.08671183
100	0xbe26f6e6	-0.16305122
101	0xbdb0c500	-0.08631325
102	0xbbddde30	-0.0067708716
103	0x3d9bc88c	0.07606611
104	0xbe82027f	-0.2539253
105	0x3d5668f7	0.052346196
106	0x3d0e096b	0.03467695
107	0xbdd7bb42	-0.105337635
108	0xbdfb04f5	-0.12256805
109	0xbdbf08cc	-0.0932785
110	0xbe5f229e	-0.21790549
111	0xbdf5a5db	-0.11994525
112	0x3dbe46d1	0.09290851
113	0xbda3cd4b	-0.07998141
114	0x3e037807	0.12838756
115	0xb7cea6e6	-2.4634832e-05
116	0xbe07e565	-0.13271101
117	0xbdad7e10	-0.0847131
118	0xbd73c201	-0.05951119
119	0xbd7c9d72	-0.06167359
120	0xbc35817d	-0.011078236
121	0x3d53faa0	0.051752687
122	0x3e17f152	0.1483815
123	0x3e1ad29b	0.15119402
124	0x3d809390	0.06278145
125	0x3e081b21	0.13291599
126	0x3dbe3fd6	0.092895195
127	0xbdd04fea	-0.101714924
128	0xbd8a56f5	-0.06754867
129	0x3d6fccfa	0.05854509
130	0x3e1074e2	0.14107087
131	0x3e033175	0.12811835
132	0xbe2fc419	-0.17164649
133	0xbd6470e4	-0.055771723
134	0xbe07db6b	-0.13267295
135	0x3cbba782	0.022907022
136	0xbc3f2581	-0.0116666565
137	0xbe85e11e	-0.26148313
138	0x3e3436e8	0.1759907
139	0xbd987d2b	-0.07445749
140	0x3e185a17	0.14878117
141	0xbd840e41	-0.06448031
142	0xbd02c205	-0.031923313
143	0x3dca6914	0.09883323
144	0xbe09511e	-0.1340985
145	0xbc8ebb01	-0.017423155
146	0xbd7be5f9	-0.061498616
147	0xbe10a3e8	-0.14125025
148	0xbe18e172	-0.1492975
149	0xbdd07e09	-0.10180289
150	0xbd521d25	-0.051297326
151	0x3e1b7ee9	0.15185131
152	0xbe4506ca	-0.19240871
153	0x3c6f0126	0.014587676
154	0x3e174302	0.14771655
155	0x3e1f348a	0.15547386
156	0x3e188d0a	0.14897552
157	0x3e211110	0.15729165
158	0xbd832de2	-0.06405236
159	0xbe0880e4	-0.13330418
160	0x3e0ab52c	0.13545674
161	0xbda59759	-0.08085508
162	0xbbe8d8bf	-0.0071059163
163	0x3e046334	0.12928468
164	0xbe2d24ba	-0.16908541
165	0x3e273cc0	0.16331768
166	0xbe629d58	-0.22130334
167	0x3d99e455	0.07514254
168	0xbd50aa9b	-0.050943952
169	0x3cd837e2	0.026393835
170	0xbd9ea535	-0.077463545
171	0x3e0bb446	0.13642988
172	0x3bbdd444	0.0057931263
173	0xbd434de2	-0.047681697
174	0xbe807f4a	-0.25097114
175	0xbdde9dfc	-0.10869977
176	0x3dfdcde0	0.12392783
177	0x3d871e24	0.06597546
178	0xbd190792	-0.037360735
179	0xbe028b45	-0.1274844
180	0x3d8a7b20	0.067617655
181	0xbd5ea1a7	-0.054353382
182	0xbde5ecec	-0.1122683
183	0xbd8eff1b	-0.06982251
184	0xbe1285e8	-0.14308894
185	0xbd869fab	-0.06573423
186	0x3db51065	0.08841018
187	0xbdac132c	-0.08402094
188	0xbe1de0cb	-0.15417783
189	0x3e2b389d	0.16720815
190	0xbd91d7d3	-0.07121243
191	0x3cb19ef1	0.021682234
192	0x3b5ce957	0.0033708417
193	0x3d0e4c1c	0.034740552
194	0xbde0e6f7	-0.10981553
195	0x3cad71c1	0.021172406
196	0xbd45147a	-0.04811523
197	0xbd8a8759	-0.06764097
198	0xbb49f333	-0.0030815124
199	0x3e13d8fc	0.14438242
200	0x3d4a7dc5	0.04943635
201	0xbce2904a	-0.027656693
202	0x3e2513ce	0.16120836
203	0xbd488b44	-0.04896094
204	0xbb80ac92	-0.003926822
205	0xbd951499	-0.07279319
206	0x3e13c090	0.14428926
207	0x3e22e395	0.15907128
208	0x3c8eedc5	0.017447362
209	0xbdfab1ad	-0.1224092
210	0xbe2d5536	-0.16927037
211	0x3e004555	0.12526448
212	0xbe3b27d8	-0.18276918
213	0xbe36e32b	-0.17860095
214	0xbe25ecb0	-0.1620357
215	0x3e0a3885	0.13498123
216	0x3d428c83	0.047497284
217	0x3d3675a7	0.044545796
218	0xbdd96d50	-0.10616553
219	0x3d806554	0.06269327
220	0xbd5365b4	-0.051610664
221	0xbe14741b	-0.14497416
222	0xbcca430b	-0.024690172
223	0xbdb409dc	-0.08790943
224	0x3e2ad705	0.16683586
225	0xbe15c656	-0.1462644
226	0x3d763e70	0.06011814
227	0xbdd57b22	-0.10423876
228	0xbd9e1c9d	-0.07720301
229	0x3d305190	0.043046534
230	0xbd35eba1	-0.044414166
231	0xbcbbb1b8	-0.022911891
232	0x3becdfae	0.007228813
233	0x3c3883df	0.011261909
234	0x3dc11751	0.094282754
235	0xbc903014	-0.01760105
236	0x3dea8b90	0.11452401
237	0x3d666985	0.056252975
238	0xbdb42cdc	-0.08797619
239	0xbe02b206	-0.12763223
240	0x3ddfc65e	0.109265074
241	0xbe897945	-0.26850334
242	0x3d4ba367	0.04971638
243	0x3cae7105	0.021294126
244	0xbe160ad7	-0.14652573
245	0xbc49ffaf	-0.012329026
246	0xbe51103f	-0.20416354
247	0x3dccaac1	0.09993506
248	0x3d9f8d84	0.07790664
249	0x3c1eb234	0.009686042
250	0x3d98c58e	0.074595556
251	0x3e289932	0.1646469
252	0xbd87d1db	-0.06631824
253	0x3e215959	0.1575674
254	0x3de13662	0.10996701
255	0xbd87bb92	-0.06627573

fc2.bias f4 [64]
0	0xbe4cc00e	-0.19995138
1	0x3e34fa17	0.17673527
2	0xbd2aef95	-0.04173239
3	0xbdee719f	-0.11642765
4	0x3ce64e59	0.028113531
5	0xbe56dce5	-0.20982702
6	0x3d59076c	0.052985594
7	0xbe39adf5	-0.18132766
8	0xbd87224d	-0.06598339
9	0xbd93052b	-0.0717872
10	0xbe383dee	-0.17992374
11	0xbe5bcaab	-0.2146403
12	0xbe163499	-0.14668502
13	0x3c05692b	0.00814275
14	0xbdda00e3	-0.106447004
15	0xbe802408	-0.2502749
16	0xbde7892d	-0.11305461
17	0xbf2d2c12	-0.6764537
18	0xbd47ce95	-0.048780996
19	0x3c3b3c91	0.011428014
20	0x3d8906ba	0.06690736
21	0xbe98402f	-0.29736468
22	0xbe566fad	-0.20941038
23	0x3c2e8161	0.0106509635
24	0xbd695d98	-0.056974024
25	0x403d6dd9	2.9598296
26	0xbc574abb	-0.013140376
27	0x3de72674	0.11286631
28	0xbf6c8c13	-0.92401236
29	0xbe08468e	-0.13308164
30	0xbe725194	-0.23663932
31	0x3ce9c2ae	0.028535213
32	0xbb64d215	-0.0034915258
33	0xbd5fbbc2	-0.05462242
34	0xbdbc4768	-0.09193307
35	0x3dc7405b	0.09729072
36	0xbdb36c6b	-0.087609135
37	0xbea7a2cb	-0.3274139
38	0xbe554d2a	-0.20830217
39	0x4043d1ea	3.0596871
40	0xbe2293b4	-0.15876657
41	0xbd3a6dae	-0.045514755
42	0xc06a6c2d	-3.6628525
43	0xbe3e77f0	-0.1860044
44	0xbde6d3c6	-0.11270861
45	0xbe0f7785	-0.14010437
46	0x3df4d4ef	0.11954676
47	0xbda4b3ce	-0.080421075
48	0xc10842eb	-8.516337
49	0xbd13f7df	-0.03612506
50	0xbfa0410d	-1.2519852
51	0xbe356310	-0.1771357
52	0xbeffbccb	-0.49948725
53	0x3dca0a65	0.09865264
54	0xbef40d16	-0.47666234
55	0xc06ce668	-3.701563
56	0xbe0406b3	-0.1289318
57	0x3e17f4d0	0.14839482
58	0xbe477670	-0.19478774
59	0x3d8a5fd2	0.067565575
60	0x3d7f9c17	0.06240472
61	0xbe243d0f	-0.16038917
62	0xbe8a8bec	-0.27059877
63	0x406888a0	3.633339

fc3.weight f4 [32, 64]
0	0xbc63b840	-0.013898909
1	0xbd4c3404	-0.049854293
2	0xbc23b100	-0.009990931
3	0xbca78c08	-0.020452514
4	0xbdf97932	-0.12181319
5	0xbd4c9fbc	-0.049957022
6	0x3d8b3e5c	0.067990035
7	0xbd508938	-0.050912112
8	0x3d007f65	0.031371493
9	0x3d9268fa	0.07148929
10	0xbab45fb8	-0.0013761437
11	0xbdca4965	-0.0987728
12	0xbdd99534	-0.10624161
13	0xbd7a5f9c	-0.061126336
14	0x3badae60	0.005300328
15	0x3dcdf075	0.10055629
16	0xbcb34c52	-0.021886978
17	0xbc847670	-0.016169757
18	0xbda5263e	-0.08063935
19	0x3e0da196	0.13831171
20	0x3d5912b0	0.052996337
21	0x3cb89ccc	0.022535704
22	0xbdaf8fde	-0.08572362
23	0xbd79d14c	-0.060990617
24	0x3d0d420c	0.034486815
25	0xbca12c18	-0.019674346
26	0xbd322f94	-0.043502405
27	0xbd23a9eb	-0.03995697
28	0xbc0b8840	-0.008516371
29	0x3df7025a	0.120609954
30	0xbdb1cd63	-0.086817525
31	0x3df6a0d6	0.12042396
32	0xbd8ed106	-0.06973462
33	0xbd07350c	-0.033009574
34	0xbdf777b5	-0.12083379
35	0xbc9e3d30	-0.019316286
36	0x3d834330	0.064092994
37	0x3ddf47f8	0.10902399
38	0xbcc39f51	-0.023879679
39	0xbdd555af	-0.104167335
40	0x3d945c69	0.07244188
41	0x3d570214	0.052492216
42	0xbe866111	-0.2624593
43	0x3c8773a2	0.01653463
44	0x3e2a2523	0.16615729
45	0xbd611ebf	-0.054960962
46	0x3dd1e692	0.10249056
47	0x3d891d52	0.066950455
48	0xbd8a8ae8	-0.067647755
49	0x3cbcc700	0.02304411
50	0x3b8efb2c	0.004363438
51	0xbd365f00	-0.044524193
52	0x3d6692cf	0.05629235
53	0x3d30e584	0.043187633
54	0xbdcb0cd6	-0.09914558
55	0x3db52f34	0.08846894
56	0xbc914098	-0.017730996
57	0x3d1b6388	0.037936717
58	0xbd22d718	-0.03975591
59	0xbc866d79	-0.016409623
60	0xba807a80	-0.0009802133
61	0xbd1be170	-0.03805679
62	0x3dacd15f	0.08438372
63	0x3dffa188	0.124819815
64	0x3d382fa3	0.044967305
65	0xbd85e238	-0.065372884
66	0x3cfbed64	0.030752845
67	0x3d488c70	0.048962057
68	0xbb6c13a9	-0.003602246
69	0x3d9c0e1a	0.07619877
70	0x3c922b78	0.017842993
71	0xbc97c294	-0.0185254
72	0x3d89fdba	0.067378476
73	0x3d55d7f3	0.0522079
74	0x3c4e3ebc	0.012588199
75	0x3d52ec7e	0.051495068
76	0xbce6208d	-0.028091693
77	0xbcc0f880	-0.023555994
78	0x3daf9526	0.0857337
79	0x3cc5a9c2	0.024128798
80	0x3d3744bc	0.044743285
81	0x3d422db7	0.04740688
82	0x3d26a396	0.04068335
83	0x3d72d34f	0.05928355
84	0xbda9d234	-0.08292046
85	0x3bbd5c7c	0.0057788473
86	0xbd193285	-0.037401695
87	0x3caba4c8	0.020952597
88	0x3bce4af2	0.0062955553
89	0xbd55a4e4	-0.052159205
90	0x3ccce0e8	0.025009587
91	0x3d231c8b	0.039822143
92	0xbd808bb9	-0.0627665
93	0xbd70b49e	-0.058766
94	0x3d8bc343	0.068243526
95	0x3e3a7cd7	0.18211685
96	0x3c3e1139	0.011600786
97	0x3b0fd85a	0.0021949024
98	0x3d9ddd81	0.07708264
99	0x3c6ae6b5	0.014337231
100	0xbd1c8e68	-0.038221747
101	0xbb3dbc8e	-0.0028951499
102	0x3d6b960c	0.057516143
103	0xbd0863b3	-0.033298206
104	0xbb21d880	-0.0024695694
105	0xbda15282	-0.07877065
106	0xbd5a9309	-0.05336288
107	0xbcdc8c22	-0.02692229
108	0x3b853d29	0.0040661287
109	0x3dec4ce9	0.11538107
110	0xbdc2f91e	-0.095201716
111	0xbc81afc3	-0.01583088
112	0x3e047ac6	0.1293746
113	0x3dc09027	0.09402495
114	0x3c823517	0.015894456
115	0x3d904f42	0.07046367
116	0x3d0a036c	0.03369467
117	0x3c48cc94	0.0122558065
118	0x3d93f276	0.0722398
119	0xbcb30dad	-0.021857107
120	0x3c2b3e00	0.010451794
121	0x3d909ed0	0.07061541
122	0x3ba3680b	0.004986768
123	0x3d271236	0.04078885
124	0x3d8c964b	0.068646036
125	0x3dad9a4c	0.084766954
126	0x3ddd7f24	0.10815266
127	0xbdc05c80	-0.09392643
128	0x3d881317	0.06644266
129	0x3dd651da	0.10464831
130	0x3ddde218	0.108341396
131	0xbbdcf726	-0.0067433296
132	0xbc650b3d	-0.01397973
133	0x3d053b2f	0.032527145
134	0x3c0d9561	0.008641572
135	0xbd72f8da	-0.059319355
136	0x3def3ec6	0.11681895
137	0xbddb0777	-0.10694783
138	0xbda2eca9	-0.079552956
139	0x3d097ac7	0.033564355
140	0xbcb2efe0	-0.021842897
141	0x3dd0b12c	0.10190043
142	0xbdac8300	-0.08423424
143	0xbd938eb6	-0.07204954
144	0x3cbcbb51	0.023038538
145	0x3d6cc64d	0.0578063
146	0x3d4ece4b	0.050489705
147	0x3d4f8f97	0.050674047
148	0x3d9e197a	0.07719703
149	0xbd75eb16	-0.06003865
150	0x3cf2278f	0.029559879
151	0xbca653b8	-0.020303592
152	0x3d5c9000	0.053848267
153	0xbcc27e74	-0.023741938
154	0x3da46746	0.0802751
155	0xbd8f0f7b	-0.069853745
156	0xbdcbcd18	-0.09951228
157	0x3da884e7	0.08228474
158	0xbb120995	-0.0022283543
159	0x3c849678	0.01618503
160	0xba489141	-0.0007651039
161	0xbc41edce	-0.011836482
162	0x3dc7e786	0.097609565
163	0xbd5f86b2	-0.054571815
164	0xbdfbfdca	-0.12304266
165	0x3a454539	0.00075252686
166	0x3d5961e3	0.053071868
167	0xbb5b4acc	-0.003346133
168	0xbddbfcab	-0.10741552
169	0xbdc48c5e	-0.095970854
170	0xbc727284	-0.01479781
171	0x3d4b1a17	0.049585428
172	0x3dc5b610	0.09653866
173	0x3cc50072	0.024048064
174	0xbe100222	-0.14063314
175	0xbe1d0c0c	-0.15336627
176	0xbd9eff08	-0.07763487
177	0x3cda050d	0.026613737
178	0xbdbe5232	-0.09293021
179	0x3da7600c	0.08172616
180	0x3d4e2097	0.05032405
181	0x3c18282d	0.009286922
182	0x3d9e288c	0.077225775
183	0xbe002a4a	-0.12516132
184	0xbd3fd4a0	-0.046833634
185	0x3c28da30	0.010305926
186	0xbca6fd2a	-0.02038439
187	0x3d45617b	0.048188668
188	0x3cca4498	0.024690911
189	0x3cb9a26b	0.022660455
190	0x3dd63314	0.10458961
191	0xbddb77ff	-0.10716247
192	0xbd3aed4c	-0.04563646
193	0xbcfd2780	-0.030902624
194	0xbd428b98	-0.04749641
195	0x3d02fe30	0.031980693
196	0xbdba3c66	-0.09093551
197	0x3dc1390e	0.094347104
198	0xbd6aa06c	-0.057281896
199	0x3cf92cb8	0.030416831
200	0xbdaef1da	-0.08542223
201	0xbc210e40	-0.009830058
202	0xbdaab799	-0.083358
203	0x3cc43a2b	0.023953518
204	0xbdd33892	-0.10313524
205	0xbdd336b0	-0.10313165
206	0xbc54d280	-0.01298964
207	0xbddee60f	-0.10883724
208	0x3cfa83bb	0.030580392
209	0xbd158cd0	-0.036511242
210	0x3d4de3c8	0.050266057
211	0xbda2f536	-0.079569265
212	0x3c54ba50	0.0129838735
213	0x3da6c45a	0.0814292
214	0xbc839920	-0.016064227
215	0x3da8454c	0.08216342
216	0xbd06007c	-0.032715306
217	0xbe358e70	-0.17730117
218	0xbdd4f08c	-0.10397443
219	0x3df2ac7a	0.118493035
220	0xbacfab97	-0.0015843984
221	0x3d89c63c	0.06727263
222	0x3d8dfc0c	0.0693284
223	0xbdd69c9c	-0.104790896
224	0xbb411a90	-0.0029465295
225	0xbdd524ac	-0.10407385
226	0x3dbde531	0.092722304
227	0x3d1d34c8	0.038380414
228	0x3dbc0220	0.09180093
229	0x3c36a707	0.011148221
230	0xbd83cda7	-0.064357094
231	0xbda7d35b	-0.0819461
232	0xbd51bd14	-0.05120571
233	0xbdd3303a	-0.10311933
234	0xbd0b666e	-0.03403323
235	0xbd2690da	-0.040665485
236	0x3e65543d	0.22395416
237	0x3d08a34a	0.03335885
238	0xbdceb9a5	-0.10094003
239	0x3c15c2d0	0.009140685
240	0xbdf5ba61	-0.119984396
241	0xbc7848b1	-0.01515405
242	0xbd434c16	-0.047679983
243	0xbde57d48	-0.11205536
244	0x3d16cbf4	0.0368156
245	0xbd673544	-0.056447282
246	0x3da28ec3	0.07937386
247	0xba929a5a	-0.0011184916
248	0x3ceb19f8	0.028698906
249	0x3daa8772	0.083266154
250	0x3d029a6c	0.03188555
251	0x3d8a80e3	0.067628644
252	0xbcb13130	-0.0216299
253	0x3c60551c	0.013692167
254	0xbc920029	-0.017822342
255	0xbce29575	-0.027659157

fc3.bias f4 [32]
0	0xbdb10c11	-0.086448796
1	0xc090a6a6	-4.520343
2	0x409b3620	4.850357
3	0x3e4b0d9e	0.19829413
4	0x3dfd49a0	0.123675585
5	0xbdd6e6c9	-0.104932375
6	0xbe42819f	-0.18994759
7	0xbe50c6cc	-0.20388335
8	0x3ef4a3fd	0.47781363
9	0xbde1be1d	-0.11022589
10	0xbca9b04e	-0.020713951
11	0xc0d77c90	-6.7339554
12	0x40261e25	2.5955899
13	0x40a18cd0	5.048439
14	0xbec85d30	-0.39133596
15	0xbd9d5185	-0.07681564
16	0xbeabd3d2	-0.33560044
17	0xbe1a9fc2	-0.15100005
18	0xbe6b9705	-0.23006828
19	0x3c32802a	0.0108948145
20	0xbe5338f8	-0.206272
21	0x3cf2c9d2	0.029637251
22	0xbe536f0e	-0.20647833
23	0xbf51dfde	-0.8198222
24	0xbe02f8c7	-0.12790214
25	0xbe2c6007	-0.16833507
26	0xbe4be3eb	-0.19911163
27	0x3e4a8c6a	0.19780126
28	0xbdb966f4	-0.0905284
29	0xbeab3792	-0.33440834
30	0xbe38e71c	-0.18056911
31	0xbe603cb9	-0.21898164

fc4.weight f4 [3, 32]
0	0xbd8efae3	-0.069814466
1	0xbed701cf	-0.41993567
2	0x3ecd7e1a	0.4013527
3	0x3e81c744	0.2534734
4	0x3c468ce1	0.012118549
5	0xbe79a6f7	-0.24380098
6	0xbdb4ea5d	-0.08833764
7	0x3d4acc07	0.049510982
8	0x3c2d00c9	0.010559269
9	0x3cee4f6d	0.029090608
10	0xbd6e0a43	-0.058115255
11	0x3f914cf4	1.1351609
12	0xbf6dcae5	-0.9288772
13	0x3eaf7133	0.34266052
14	0x3df89d9c	0.121394366
15	0x3d965f31	0.07342375
16	0xbe16ff37	-0.14745794
17	0xbc2c1672	-0.010503398
18	0x3e18fcfd	0.14940257
19	0x3de5de22	0.11224009
20	0xbe27a030	-0.163697
21	0x3ddf87df	0.10914587
22	0xbc8d7b00	-0.017270565
23	0xbe5234ad	-0.20527907
24	0x3d1ce52a	0.038304485
25	0x3be600ee	0.007019154
26	0x3caa24c2	0.02076948
27	0x3e6a8343	0.22901635
28	0x3dd66fe3	0.104705594
29	0xbdbec352	-0.09314598
30	0x3aa486df	0.0012552402
31	0xbe53a1d4	-0.20667201
32	0xbe1dc0c8	-0.15405571
33	0xbd0511f4	-0.032487825
34	0xbef83148	-0.484751
35	0xbe2ffab9	-0.17185487
36	0xbe213da7	-0.15746175
37	0xbc41291f	-0.011789589
38	0xbcb66811	-0.02226642
39	0xbb332598	-0.002733564
40	0x3eab2af3	0.33431205
41	0xbd1ef8e2	-0.038811572
42	0xbcaa39d1	-0.020779522
43	0xbf9edb74	-1.2410722
44	0x3f8d8881	1.1057283
45	0xbf4669f8	-0.77505445
46	0x3dd5de4d	0.10442791
47	0xbdaa3dfd	-0.083126046
48	0xbe4f4bcc	-0.20243758
49	0x3bce7341	0.0063003604
50	0xbe3679c9	-0.17819895
51	0xbe645ffc	-0.2230224
52	0xbdb63a7e	-0.08897875
53	0xbe06de60	-0.13170767
54	0xbdfe0f43	-0.12405255
55	0xbc78d4b5	-0.015187432
56	0x3d010085	0.031494636
57	0xbe8d01af	-0.27540347
58	0xbdae965b	-0.08524772
59	0xbec06399	-0.37575987
60	0xbdb10852	-0.08644165
61	0xbee0159d	-0.4376649
62	0xbe21dab6	-0.15806088
63	0xbcecf174	-0.028923728
64	0xbe529845	-0.20565899
65	0x3e7002c8	0.23438561
66	0x3ea6ca12	0.32576042
67	0xbc95820b	-0.018250486
68	0xbf3b7e9e	-0.7324008
69	0xbe6026c2	-0.21889785
70	0xbe672c89	-0.22575583
71	0xbb7b44d5	-0.0038340588
72	0xbf23dafe	-0.6400603
73	0x3d9fca6d	0.078022815
74	0x3d69d601	0.057088856
75	0x3ecf27f8	0.4046018
76	0xbf2f6b1c	-0.6852281
77	0x3ef678a8	0.48138928
78	0x3dad936d	0.08475385
79	0x3db1a232	0.086735144
80	0xbdf3bb48	-0.119009554
81	0xbddb03c9	-0.10694081
82	0xbd16150d	-0.03664117
83	0xbe5c6cb0	-0.21525836
84	0xbef07aa1	-0.46968558
85	0xbe9e4581	-0.30912402
86	0x3c04b97c	0.008100864
87	0xbe517255	-0.2045377
88	0x3d961237	0.07327693
89	0xbee4b1f9	-0.44667032
90	0xbc902d3c	-0.017599694
91	0xbf6d5f5a	-0.9272362
92	0x3b891ea7	0.0041845622
93	0xbee5b883	-0.44867334
94	0xbde1db08	-0.11028105
95	0xbe1420d2	-0.14465645

fc4.bias f4 [3]
0	0x3f687fb0	0.90819836
1	0x3ffa4225	1.9551436
2	0xc040721f	-3.0069654
